<?xml version="1.0" ?>
<net name="ResMobNet_v4 (LReLU) with single SSD head" version="11">
	<layers>
		<layer id="24" name="data" type="Parameter" version="opset1">
			<data shape="1,3,320,544" element_type="f32"/>
			<rt_info>
				<attribute name="old_api_map_element_type" version="0" value="f16"/>
			</rt_info>
			<output>
				<port id="0" precision="FP32" names="data">
					<dim>1</dim>
					<dim>3</dim>
					<dim>320</dim>
					<dim>544</dim>
					<rt_info>
						<attribute name="layout" version="0" layout="[N,C,H,W]"/>
					</rt_info>
				</port>
			</output>
		</layer>
		<layer id="0" name="5997600129012" type="Const" version="opset1">
			<data offset="0" size="4" shape="" element_type="f32"/>
			<output>
				<port id="0" precision="FP32"/>
			</output>
		</layer>
		<layer id="1" name="5998600227635" type="Const" version="opset1">
			<data offset="4" size="4" shape="" element_type="f32"/>
			<output>
				<port id="0" precision="FP32"/>
			</output>
		</layer>
		<layer id="2" name="5999600327215" type="Const" version="opset1">
			<data offset="0" size="4" shape="" element_type="f32"/>
			<output>
				<port id="0" precision="FP32"/>
			</output>
		</layer>
		<layer id="3" name="6000600428913" type="Const" version="opset1">
			<data offset="4" size="4" shape="" element_type="f32"/>
			<output>
				<port id="0" precision="FP32"/>
			</output>
		</layer>
		<layer id="4" name="6457646127812" type="Const" version="opset1">
			<data offset="8" size="4" shape="" element_type="f32"/>
			<output>
				<port id="0" precision="FP32"/>
			</output>
		</layer>
		<layer id="5" name="6458646227668" type="Const" version="opset1">
			<data offset="12" size="4" shape="" element_type="f32"/>
			<output>
				<port id="0" precision="FP32"/>
			</output>
		</layer>
		<layer id="6" name="6459646326456" type="Const" version="opset1">
			<data offset="8" size="4" shape="" element_type="f32"/>
			<output>
				<port id="0" precision="FP32"/>
			</output>
		</layer>
		<layer id="7" name="6460646426903" type="Const" version="opset1">
			<data offset="12" size="4" shape="" element_type="f32"/>
			<output>
				<port id="0" precision="FP32"/>
			</output>
		</layer>
		<layer id="8" name="5837584127911" type="Const" version="opset1">
			<data offset="16" size="4" shape="" element_type="f32"/>
			<output>
				<port id="0" precision="FP32"/>
			</output>
		</layer>
		<layer id="9" name="5838584227824" type="Const" version="opset1">
			<data offset="20" size="4" shape="" element_type="f32"/>
			<output>
				<port id="0" precision="FP32"/>
			</output>
		</layer>
		<layer id="10" name="5839584329006" type="Const" version="opset1">
			<data offset="16" size="4" shape="" element_type="f32"/>
			<output>
				<port id="0" precision="FP32"/>
			</output>
		</layer>
		<layer id="11" name="5840584428001" type="Const" version="opset1">
			<data offset="20" size="4" shape="" element_type="f32"/>
			<output>
				<port id="0" precision="FP32"/>
			</output>
		</layer>
		<layer id="12" name="5017502127848" type="Const" version="opset1">
			<data offset="24" size="4" shape="" element_type="f32"/>
			<output>
				<port id="0" precision="FP32"/>
			</output>
		</layer>
		<layer id="13" name="5018502226702" type="Const" version="opset1">
			<data offset="28" size="4" shape="" element_type="f32"/>
			<output>
				<port id="0" precision="FP32"/>
			</output>
		</layer>
		<layer id="14" name="5019502326033" type="Const" version="opset1">
			<data offset="24" size="4" shape="" element_type="f32"/>
			<output>
				<port id="0" precision="FP32"/>
			</output>
		</layer>
		<layer id="15" name="5020502427896" type="Const" version="opset1">
			<data offset="28" size="4" shape="" element_type="f32"/>
			<output>
				<port id="0" precision="FP32"/>
			</output>
		</layer>
		<layer id="16" name="5197520128688" type="Const" version="opset1">
			<data offset="32" size="4" shape="" element_type="f32"/>
			<output>
				<port id="0" precision="FP32"/>
			</output>
		</layer>
		<layer id="17" name="5198520227116" type="Const" version="opset1">
			<data offset="36" size="4" shape="" element_type="f32"/>
			<output>
				<port id="0" precision="FP32"/>
			</output>
		</layer>
		<layer id="18" name="5199520326846" type="Const" version="opset1">
			<data offset="32" size="4" shape="" element_type="f32"/>
			<output>
				<port id="0" precision="FP32"/>
			</output>
		</layer>
		<layer id="19" name="5200520426663" type="Const" version="opset1">
			<data offset="36" size="4" shape="" element_type="f32"/>
			<output>
				<port id="0" precision="FP32"/>
			</output>
		</layer>
		<layer id="20" name="5517552126909" type="Const" version="opset1">
			<data offset="40" size="4" shape="" element_type="f32"/>
			<output>
				<port id="0" precision="FP32"/>
			</output>
		</layer>
		<layer id="21" name="5518552227686" type="Const" version="opset1">
			<data offset="44" size="4" shape="" element_type="f32"/>
			<output>
				<port id="0" precision="FP32"/>
			</output>
		</layer>
		<layer id="22" name="5519552325865" type="Const" version="opset1">
			<data offset="40" size="4" shape="" element_type="f32"/>
			<output>
				<port id="0" precision="FP32"/>
			</output>
		</layer>
		<layer id="23" name="5520552427887" type="Const" version="opset1">
			<data offset="44" size="4" shape="" element_type="f32"/>
			<output>
				<port id="0" precision="FP32"/>
			</output>
		</layer>
		<layer id="25" name="data_mul_24444108627815" type="Const" version="opset1">
			<data offset="48" size="6" shape="1,3,1,1" element_type="f16"/>
			<output>
				<port id="0" precision="FP16">
					<dim>1</dim>
					<dim>3</dim>
					<dim>1</dim>
					<dim>1</dim>
				</port>
			</output>
		</layer>
		<layer id="26" name="data_mul_24444108613917/restored_convert" type="Convert" version="opset1">
			<data destination_type="f32"/>
			<rt_info>
				<attribute name="decompression" version="0"/>
			</rt_info>
			<input>
				<port id="0">
					<dim>1</dim>
					<dim>3</dim>
					<dim>1</dim>
					<dim>1</dim>
				</port>
			</input>
			<output>
				<port id="1" precision="FP32">
					<dim>1</dim>
					<dim>3</dim>
					<dim>1</dim>
					<dim>1</dim>
				</port>
			</output>
		</layer>
		<layer id="27" name="data/norm/bn/mean/Fused_Mul_" type="Multiply" version="opset1">
			<data auto_broadcast="numpy"/>
			<input>
				<port id="0">
					<dim>1</dim>
					<dim>3</dim>
					<dim>320</dim>
					<dim>544</dim>
				</port>
				<port id="1">
					<dim>1</dim>
					<dim>3</dim>
					<dim>1</dim>
					<dim>1</dim>
				</port>
			</input>
			<output>
				<port id="2" precision="FP32">
					<dim>1</dim>
					<dim>3</dim>
					<dim>320</dim>
					<dim>544</dim>
				</port>
			</output>
		</layer>
		<layer id="28" name="data_add_24446108926006" type="Const" version="opset1">
			<data offset="54" size="6" shape="1,3,1,1" element_type="f16"/>
			<output>
				<port id="0" precision="FP16">
					<dim>1</dim>
					<dim>3</dim>
					<dim>1</dim>
					<dim>1</dim>
				</port>
			</output>
		</layer>
		<layer id="29" name="data_add_24446108913918/restored_convert" type="Convert" version="opset1">
			<data destination_type="f32"/>
			<rt_info>
				<attribute name="decompression" version="0"/>
			</rt_info>
			<input>
				<port id="0">
					<dim>1</dim>
					<dim>3</dim>
					<dim>1</dim>
					<dim>1</dim>
				</port>
			</input>
			<output>
				<port id="1" precision="FP32">
					<dim>1</dim>
					<dim>3</dim>
					<dim>1</dim>
					<dim>1</dim>
				</port>
			</output>
		</layer>
		<layer id="30" name="data/norm/bn/variance/Fused_Add_" type="Add" version="opset1">
			<data auto_broadcast="numpy"/>
			<input>
				<port id="0">
					<dim>1</dim>
					<dim>3</dim>
					<dim>320</dim>
					<dim>544</dim>
				</port>
				<port id="1">
					<dim>1</dim>
					<dim>3</dim>
					<dim>1</dim>
					<dim>1</dim>
				</port>
			</input>
			<output>
				<port id="2" precision="FP32" names="data/norm/bn">
					<dim>1</dim>
					<dim>3</dim>
					<dim>320</dim>
					<dim>544</dim>
				</port>
			</output>
		</layer>
		<layer id="31" name="init_block1/dim_inc/conv/fq_input_0" type="FakeQuantize" version="opset1">
			<data levels="256" auto_broadcast="numpy"/>
			<input>
				<port id="0">
					<dim>1</dim>
					<dim>3</dim>
					<dim>320</dim>
					<dim>544</dim>
				</port>
				<port id="1"/>
				<port id="2"/>
				<port id="3"/>
				<port id="4"/>
			</input>
			<output>
				<port id="5" precision="FP32">
					<dim>1</dim>
					<dim>3</dim>
					<dim>320</dim>
					<dim>544</dim>
				</port>
			</output>
		</layer>
		<layer id="32" name="init_block1/dim_inc/conv/fq_weights_1/scale1706126756" type="Const" version="opset1">
			<data offset="60" size="128" shape="32,1,1,1" element_type="f32"/>
			<output>
				<port id="0" precision="FP32">
					<dim>32</dim>
					<dim>1</dim>
					<dim>1</dim>
					<dim>1</dim>
				</port>
			</output>
		</layer>
		<layer id="33" name="init_block1/dim_inc/bn/mean/Fused_Mul__copy109213919/restored_convert/quantized1705328109" type="Const" version="opset1">
			<data offset="188" size="864" shape="32,3,3,3" element_type="i8"/>
			<output>
				<port id="0" precision="I8">
					<dim>32</dim>
					<dim>3</dim>
					<dim>3</dim>
					<dim>3</dim>
				</port>
			</output>
		</layer>
		<layer id="34" name="init_block1/dim_inc/bn/mean/Fused_Mul__copy109213919/restored_convert/quantized/to_f32" type="Convert" version="opset1">
			<data destination_type="f32"/>
			<input>
				<port id="0">
					<dim>32</dim>
					<dim>3</dim>
					<dim>3</dim>
					<dim>3</dim>
				</port>
			</input>
			<output>
				<port id="1" precision="FP32">
					<dim>32</dim>
					<dim>3</dim>
					<dim>3</dim>
					<dim>3</dim>
				</port>
			</output>
		</layer>
		<layer id="35" name="init_block1/dim_inc/conv/fq_weights_1/mulpiply_by_scale" type="Multiply" version="opset1">
			<data auto_broadcast="numpy"/>
			<input>
				<port id="0">
					<dim>32</dim>
					<dim>3</dim>
					<dim>3</dim>
					<dim>3</dim>
				</port>
				<port id="1">
					<dim>32</dim>
					<dim>1</dim>
					<dim>1</dim>
					<dim>1</dim>
				</port>
			</input>
			<output>
				<port id="2" precision="FP32">
					<dim>32</dim>
					<dim>3</dim>
					<dim>3</dim>
					<dim>3</dim>
				</port>
			</output>
		</layer>
		<layer id="36" name="init_block1/dim_inc/conv" type="Convolution" version="opset1">
			<data auto_pad="explicit" strides="2,2" dilations="1,1" pads_begin="1,1" pads_end="1,1"/>
			<input>
				<port id="0">
					<dim>1</dim>
					<dim>3</dim>
					<dim>320</dim>
					<dim>544</dim>
				</port>
				<port id="1">
					<dim>32</dim>
					<dim>3</dim>
					<dim>3</dim>
					<dim>3</dim>
				</port>
			</input>
			<output>
				<port id="2" precision="FP32">
					<dim>1</dim>
					<dim>32</dim>
					<dim>160</dim>
					<dim>272</dim>
				</port>
			</output>
		</layer>
		<layer id="37" name="data_add_2444924454109528979" type="Const" version="opset1">
			<data offset="1052" size="64" shape="1,32,1,1" element_type="f16"/>
			<output>
				<port id="0" precision="FP16">
					<dim>1</dim>
					<dim>32</dim>
					<dim>1</dim>
					<dim>1</dim>
				</port>
			</output>
		</layer>
		<layer id="38" name="data_add_2444924454109513920/restored_convert" type="Convert" version="opset1">
			<data destination_type="f32"/>
			<rt_info>
				<attribute name="decompression" version="0"/>
			</rt_info>
			<input>
				<port id="0">
					<dim>1</dim>
					<dim>32</dim>
					<dim>1</dim>
					<dim>1</dim>
				</port>
			</input>
			<output>
				<port id="1" precision="FP32">
					<dim>1</dim>
					<dim>32</dim>
					<dim>1</dim>
					<dim>1</dim>
				</port>
			</output>
		</layer>
		<layer id="39" name="init_block1/dim_inc/bn/variance/Fused_Add_" type="Add" version="opset1">
			<data auto_broadcast="numpy"/>
			<input>
				<port id="0">
					<dim>1</dim>
					<dim>32</dim>
					<dim>160</dim>
					<dim>272</dim>
				</port>
				<port id="1">
					<dim>1</dim>
					<dim>32</dim>
					<dim>1</dim>
					<dim>1</dim>
				</port>
			</input>
			<output>
				<port id="2" precision="FP32" names="init_block1/dim_inc/conv">
					<dim>1</dim>
					<dim>32</dim>
					<dim>160</dim>
					<dim>272</dim>
				</port>
			</output>
		</layer>
		<layer id="40" name="init_block1/dim_inc/fn" type="ReLU" version="opset1">
			<input>
				<port id="0">
					<dim>1</dim>
					<dim>32</dim>
					<dim>160</dim>
					<dim>272</dim>
				</port>
			</input>
			<output>
				<port id="1" precision="FP32" names="init_block1/dim_inc/conv">
					<dim>1</dim>
					<dim>32</dim>
					<dim>160</dim>
					<dim>272</dim>
				</port>
			</output>
		</layer>
		<layer id="41" name="bottleneck1_1/add/fq_input_0" type="FakeQuantize" version="opset1">
			<data levels="256" auto_broadcast="numpy"/>
			<input>
				<port id="0">
					<dim>1</dim>
					<dim>32</dim>
					<dim>160</dim>
					<dim>272</dim>
				</port>
				<port id="1"/>
				<port id="2"/>
				<port id="3"/>
				<port id="4"/>
			</input>
			<output>
				<port id="5" precision="FP32">
					<dim>1</dim>
					<dim>32</dim>
					<dim>160</dim>
					<dim>272</dim>
				</port>
			</output>
		</layer>
		<layer id="42" name="5207521126165" type="Const" version="opset1">
			<data offset="1116" size="4" shape="" element_type="f32"/>
			<output>
				<port id="0" precision="FP32"/>
			</output>
		</layer>
		<layer id="43" name="5208521226024" type="Const" version="opset1">
			<data offset="1120" size="4" shape="" element_type="f32"/>
			<output>
				<port id="0" precision="FP32"/>
			</output>
		</layer>
		<layer id="44" name="5209521328754" type="Const" version="opset1">
			<data offset="1116" size="4" shape="" element_type="f32"/>
			<output>
				<port id="0" precision="FP32"/>
			</output>
		</layer>
		<layer id="45" name="5210521427275" type="Const" version="opset1">
			<data offset="1120" size="4" shape="" element_type="f32"/>
			<output>
				<port id="0" precision="FP32"/>
			</output>
		</layer>
		<layer id="46" name="5857586125970" type="Const" version="opset1">
			<data offset="1124" size="4" shape="" element_type="f32"/>
			<output>
				<port id="0" precision="FP32"/>
			</output>
		</layer>
		<layer id="47" name="5858586226069" type="Const" version="opset1">
			<data offset="1128" size="4" shape="" element_type="f32"/>
			<output>
				<port id="0" precision="FP32"/>
			</output>
		</layer>
		<layer id="48" name="5859586325964" type="Const" version="opset1">
			<data offset="1124" size="4" shape="" element_type="f32"/>
			<output>
				<port id="0" precision="FP32"/>
			</output>
		</layer>
		<layer id="49" name="5860586426870" type="Const" version="opset1">
			<data offset="1128" size="4" shape="" element_type="f32"/>
			<output>
				<port id="0" precision="FP32"/>
			</output>
		</layer>
		<layer id="50" name="5797580125793" type="Const" version="opset1">
			<data offset="1132" size="32" shape="1,8,1,1" element_type="f32"/>
			<output>
				<port id="0" precision="FP32">
					<dim>1</dim>
					<dim>8</dim>
					<dim>1</dim>
					<dim>1</dim>
				</port>
			</output>
		</layer>
		<layer id="51" name="5798580228205" type="Const" version="opset1">
			<data offset="1164" size="32" shape="1,8,1,1" element_type="f32"/>
			<output>
				<port id="0" precision="FP32">
					<dim>1</dim>
					<dim>8</dim>
					<dim>1</dim>
					<dim>1</dim>
				</port>
			</output>
		</layer>
		<layer id="52" name="5799580328034" type="Const" version="opset1">
			<data offset="1132" size="32" shape="1,8,1,1" element_type="f32"/>
			<output>
				<port id="0" precision="FP32">
					<dim>1</dim>
					<dim>8</dim>
					<dim>1</dim>
					<dim>1</dim>
				</port>
			</output>
		</layer>
		<layer id="53" name="5800580427755" type="Const" version="opset1">
			<data offset="1164" size="32" shape="1,8,1,1" element_type="f32"/>
			<output>
				<port id="0" precision="FP32">
					<dim>1</dim>
					<dim>8</dim>
					<dim>1</dim>
					<dim>1</dim>
				</port>
			</output>
		</layer>
		<layer id="54" name="bottleneck1_1/dim_red/conv/fq_weights_1/scale1853126603" type="Const" version="opset1">
			<data offset="1196" size="32" shape="8,1,1,1" element_type="f32"/>
			<output>
				<port id="0" precision="FP32">
					<dim>8</dim>
					<dim>1</dim>
					<dim>1</dim>
					<dim>1</dim>
				</port>
			</output>
		</layer>
		<layer id="55" name="bottleneck1_1/dim_red/bn/mean/Fused_Mul__copy109913921/restored_convert/quantized1852326645" type="Const" version="opset1">
			<data offset="1228" size="256" shape="8,32,1,1" element_type="i8"/>
			<output>
				<port id="0" precision="I8">
					<dim>8</dim>
					<dim>32</dim>
					<dim>1</dim>
					<dim>1</dim>
				</port>
			</output>
		</layer>
		<layer id="56" name="bottleneck1_1/dim_red/bn/mean/Fused_Mul__copy109913921/restored_convert/quantized/to_f32" type="Convert" version="opset1">
			<data destination_type="f32"/>
			<input>
				<port id="0">
					<dim>8</dim>
					<dim>32</dim>
					<dim>1</dim>
					<dim>1</dim>
				</port>
			</input>
			<output>
				<port id="1" precision="FP32">
					<dim>8</dim>
					<dim>32</dim>
					<dim>1</dim>
					<dim>1</dim>
				</port>
			</output>
		</layer>
		<layer id="57" name="bottleneck1_1/dim_red/conv/fq_weights_1/mulpiply_by_scale" type="Multiply" version="opset1">
			<data auto_broadcast="numpy"/>
			<input>
				<port id="0">
					<dim>8</dim>
					<dim>32</dim>
					<dim>1</dim>
					<dim>1</dim>
				</port>
				<port id="1">
					<dim>8</dim>
					<dim>1</dim>
					<dim>1</dim>
					<dim>1</dim>
				</port>
			</input>
			<output>
				<port id="2" precision="FP32">
					<dim>8</dim>
					<dim>32</dim>
					<dim>1</dim>
					<dim>1</dim>
				</port>
			</output>
		</layer>
		<layer id="58" name="bottleneck1_1/dim_red/conv" type="Convolution" version="opset1">
			<data auto_pad="explicit" strides="1,1" dilations="1,1" pads_begin="0,0" pads_end="0,0"/>
			<input>
				<port id="0">
					<dim>1</dim>
					<dim>32</dim>
					<dim>160</dim>
					<dim>272</dim>
				</port>
				<port id="1">
					<dim>8</dim>
					<dim>32</dim>
					<dim>1</dim>
					<dim>1</dim>
				</port>
			</input>
			<output>
				<port id="2" precision="FP32">
					<dim>1</dim>
					<dim>8</dim>
					<dim>160</dim>
					<dim>272</dim>
				</port>
			</output>
		</layer>
		<layer id="59" name="data_add_2445724462110226153" type="Const" version="opset1">
			<data offset="1484" size="16" shape="1,8,1,1" element_type="f16"/>
			<output>
				<port id="0" precision="FP16">
					<dim>1</dim>
					<dim>8</dim>
					<dim>1</dim>
					<dim>1</dim>
				</port>
			</output>
		</layer>
		<layer id="60" name="data_add_2445724462110213922/restored_convert" type="Convert" version="opset1">
			<data destination_type="f32"/>
			<rt_info>
				<attribute name="decompression" version="0"/>
			</rt_info>
			<input>
				<port id="0">
					<dim>1</dim>
					<dim>8</dim>
					<dim>1</dim>
					<dim>1</dim>
				</port>
			</input>
			<output>
				<port id="1" precision="FP32">
					<dim>1</dim>
					<dim>8</dim>
					<dim>1</dim>
					<dim>1</dim>
				</port>
			</output>
		</layer>
		<layer id="61" name="bottleneck1_1/dim_red/bn/variance/Fused_Add_" type="Add" version="opset1">
			<data auto_broadcast="numpy"/>
			<input>
				<port id="0">
					<dim>1</dim>
					<dim>8</dim>
					<dim>160</dim>
					<dim>272</dim>
				</port>
				<port id="1">
					<dim>1</dim>
					<dim>8</dim>
					<dim>1</dim>
					<dim>1</dim>
				</port>
			</input>
			<output>
				<port id="2" precision="FP32" names="bottleneck1_1/dim_red/conv">
					<dim>1</dim>
					<dim>8</dim>
					<dim>160</dim>
					<dim>272</dim>
				</port>
			</output>
		</layer>
		<layer id="62" name="bottleneck1_1/dim_red/fn/weights3093640688110525940" type="Const" version="opset1">
			<data offset="1500" size="2" shape="1" element_type="f16"/>
			<output>
				<port id="0" precision="FP16">
					<dim>1</dim>
				</port>
			</output>
		</layer>
		<layer id="63" name="bottleneck1_1/dim_red/fn/weights3093640688110513923/restored_convert" type="Convert" version="opset1">
			<data destination_type="f32"/>
			<rt_info>
				<attribute name="decompression" version="0"/>
			</rt_info>
			<input>
				<port id="0">
					<dim>1</dim>
				</port>
			</input>
			<output>
				<port id="1" precision="FP32">
					<dim>1</dim>
				</port>
			</output>
		</layer>
		<layer id="64" name="bottleneck1_1/dim_red/fn" type="PReLU" version="opset1">
			<input>
				<port id="0">
					<dim>1</dim>
					<dim>8</dim>
					<dim>160</dim>
					<dim>272</dim>
				</port>
				<port id="1">
					<dim>1</dim>
				</port>
			</input>
			<output>
				<port id="2" precision="FP32" names="bottleneck1_1/dim_red/conv">
					<dim>1</dim>
					<dim>8</dim>
					<dim>160</dim>
					<dim>272</dim>
				</port>
			</output>
		</layer>
		<layer id="65" name="bottleneck1_1/inner/dw1/conv/fq_input_0" type="FakeQuantize" version="opset1">
			<data levels="256" auto_broadcast="numpy"/>
			<input>
				<port id="0">
					<dim>1</dim>
					<dim>8</dim>
					<dim>160</dim>
					<dim>272</dim>
				</port>
				<port id="1">
					<dim>1</dim>
					<dim>8</dim>
					<dim>1</dim>
					<dim>1</dim>
				</port>
				<port id="2">
					<dim>1</dim>
					<dim>8</dim>
					<dim>1</dim>
					<dim>1</dim>
				</port>
				<port id="3">
					<dim>1</dim>
					<dim>8</dim>
					<dim>1</dim>
					<dim>1</dim>
				</port>
				<port id="4">
					<dim>1</dim>
					<dim>8</dim>
					<dim>1</dim>
					<dim>1</dim>
				</port>
			</input>
			<output>
				<port id="5" precision="FP32">
					<dim>1</dim>
					<dim>8</dim>
					<dim>160</dim>
					<dim>272</dim>
				</port>
			</output>
		</layer>
		<layer id="66" name="bottleneck1_1/inner/dw1/conv/weights_shape2295727956" type="Const" version="opset1">
			<data offset="1502" size="40" shape="5" element_type="i64"/>
			<output>
				<port id="0" precision="I64">
					<dim>5</dim>
				</port>
			</output>
		</layer>
		<layer id="67" name="bottleneck1_1/inner/dw1/conv/fq_weights_1/scale1694127080" type="Const" version="opset1">
			<data offset="1542" size="32" shape="8,1,1,1" element_type="f32"/>
			<output>
				<port id="0" precision="FP32">
					<dim>8</dim>
					<dim>1</dim>
					<dim>1</dim>
					<dim>1</dim>
				</port>
			</output>
		</layer>
		<layer id="68" name="bottleneck1_1/inner/dw1/bn/mean/Fused_Mul__copy110813924/restored_convert/quantized1693327158" type="Const" version="opset1">
			<data offset="1574" size="72" shape="8,1,3,3" element_type="i8"/>
			<output>
				<port id="0" precision="I8">
					<dim>8</dim>
					<dim>1</dim>
					<dim>3</dim>
					<dim>3</dim>
				</port>
			</output>
		</layer>
		<layer id="69" name="bottleneck1_1/inner/dw1/bn/mean/Fused_Mul__copy110813924/restored_convert/quantized/to_f32" type="Convert" version="opset1">
			<data destination_type="f32"/>
			<input>
				<port id="0">
					<dim>8</dim>
					<dim>1</dim>
					<dim>3</dim>
					<dim>3</dim>
				</port>
			</input>
			<output>
				<port id="1" precision="FP32">
					<dim>8</dim>
					<dim>1</dim>
					<dim>3</dim>
					<dim>3</dim>
				</port>
			</output>
		</layer>
		<layer id="70" name="bottleneck1_1/inner/dw1/conv/fq_weights_1/mulpiply_by_scale" type="Multiply" version="opset1">
			<data auto_broadcast="numpy"/>
			<input>
				<port id="0">
					<dim>8</dim>
					<dim>1</dim>
					<dim>3</dim>
					<dim>3</dim>
				</port>
				<port id="1">
					<dim>8</dim>
					<dim>1</dim>
					<dim>1</dim>
					<dim>1</dim>
				</port>
			</input>
			<output>
				<port id="2" precision="FP32">
					<dim>8</dim>
					<dim>1</dim>
					<dim>3</dim>
					<dim>3</dim>
				</port>
			</output>
		</layer>
		<layer id="71" name="22956" type="Reshape" version="opset1">
			<data special_zero="true"/>
			<input>
				<port id="0">
					<dim>8</dim>
					<dim>1</dim>
					<dim>3</dim>
					<dim>3</dim>
				</port>
				<port id="1">
					<dim>5</dim>
				</port>
			</input>
			<output>
				<port id="2" precision="FP32">
					<dim>8</dim>
					<dim>1</dim>
					<dim>1</dim>
					<dim>3</dim>
					<dim>3</dim>
				</port>
			</output>
		</layer>
		<layer id="72" name="bottleneck1_1/inner/dw1/conv" type="GroupConvolution" version="opset1">
			<data auto_pad="explicit" strides="1,1" dilations="1,1" pads_begin="1,1" pads_end="1,1"/>
			<input>
				<port id="0">
					<dim>1</dim>
					<dim>8</dim>
					<dim>160</dim>
					<dim>272</dim>
				</port>
				<port id="1">
					<dim>8</dim>
					<dim>1</dim>
					<dim>1</dim>
					<dim>3</dim>
					<dim>3</dim>
				</port>
			</input>
			<output>
				<port id="2" precision="FP32">
					<dim>1</dim>
					<dim>8</dim>
					<dim>160</dim>
					<dim>272</dim>
				</port>
			</output>
		</layer>
		<layer id="73" name="data_add_2446524470111127557" type="Const" version="opset1">
			<data offset="1646" size="16" shape="1,8,1,1" element_type="f16"/>
			<output>
				<port id="0" precision="FP16">
					<dim>1</dim>
					<dim>8</dim>
					<dim>1</dim>
					<dim>1</dim>
				</port>
			</output>
		</layer>
		<layer id="74" name="data_add_2446524470111113925/restored_convert" type="Convert" version="opset1">
			<data destination_type="f32"/>
			<rt_info>
				<attribute name="decompression" version="0"/>
			</rt_info>
			<input>
				<port id="0">
					<dim>1</dim>
					<dim>8</dim>
					<dim>1</dim>
					<dim>1</dim>
				</port>
			</input>
			<output>
				<port id="1" precision="FP32">
					<dim>1</dim>
					<dim>8</dim>
					<dim>1</dim>
					<dim>1</dim>
				</port>
			</output>
		</layer>
		<layer id="75" name="bottleneck1_1/inner/dw1/bn/variance/Fused_Add_" type="Add" version="opset1">
			<data auto_broadcast="numpy"/>
			<input>
				<port id="0">
					<dim>1</dim>
					<dim>8</dim>
					<dim>160</dim>
					<dim>272</dim>
				</port>
				<port id="1">
					<dim>1</dim>
					<dim>8</dim>
					<dim>1</dim>
					<dim>1</dim>
				</port>
			</input>
			<output>
				<port id="2" precision="FP32" names="bottleneck1_1/inner/dw1/conv">
					<dim>1</dim>
					<dim>8</dim>
					<dim>160</dim>
					<dim>272</dim>
				</port>
			</output>
		</layer>
		<layer id="76" name="bottleneck1_1/inner/dw1/fn/weights3114840484111427890" type="Const" version="opset1">
			<data offset="1500" size="2" shape="1" element_type="f16"/>
			<output>
				<port id="0" precision="FP16">
					<dim>1</dim>
				</port>
			</output>
		</layer>
		<layer id="77" name="bottleneck1_1/inner/dw1/fn/weights3114840484111413926/restored_convert" type="Convert" version="opset1">
			<data destination_type="f32"/>
			<rt_info>
				<attribute name="decompression" version="0"/>
			</rt_info>
			<input>
				<port id="0">
					<dim>1</dim>
				</port>
			</input>
			<output>
				<port id="1" precision="FP32">
					<dim>1</dim>
				</port>
			</output>
		</layer>
		<layer id="78" name="bottleneck1_1/inner/dw1/fn" type="PReLU" version="opset1">
			<input>
				<port id="0">
					<dim>1</dim>
					<dim>8</dim>
					<dim>160</dim>
					<dim>272</dim>
				</port>
				<port id="1">
					<dim>1</dim>
				</port>
			</input>
			<output>
				<port id="2" precision="FP32" names="bottleneck1_1/inner/dw1/conv">
					<dim>1</dim>
					<dim>8</dim>
					<dim>160</dim>
					<dim>272</dim>
				</port>
			</output>
		</layer>
		<layer id="79" name="bottleneck1_1/dim_inc/conv/fq_input_0" type="FakeQuantize" version="opset1">
			<data levels="256" auto_broadcast="numpy"/>
			<input>
				<port id="0">
					<dim>1</dim>
					<dim>8</dim>
					<dim>160</dim>
					<dim>272</dim>
				</port>
				<port id="1"/>
				<port id="2"/>
				<port id="3"/>
				<port id="4"/>
			</input>
			<output>
				<port id="5" precision="FP32">
					<dim>1</dim>
					<dim>8</dim>
					<dim>160</dim>
					<dim>272</dim>
				</port>
			</output>
		</layer>
		<layer id="80" name="bottleneck1_1/dim_inc/conv/fq_weights_1/scale1850127947" type="Const" version="opset1">
			<data offset="1662" size="128" shape="32,1,1,1" element_type="f32"/>
			<output>
				<port id="0" precision="FP32">
					<dim>32</dim>
					<dim>1</dim>
					<dim>1</dim>
					<dim>1</dim>
				</port>
			</output>
		</layer>
		<layer id="81" name="bottleneck1_1/dim_inc/bn/mean/Fused_Mul__copy111713927/restored_convert/quantized1849328040" type="Const" version="opset1">
			<data offset="1790" size="256" shape="32,8,1,1" element_type="i8"/>
			<output>
				<port id="0" precision="I8">
					<dim>32</dim>
					<dim>8</dim>
					<dim>1</dim>
					<dim>1</dim>
				</port>
			</output>
		</layer>
		<layer id="82" name="bottleneck1_1/dim_inc/bn/mean/Fused_Mul__copy111713927/restored_convert/quantized/to_f32" type="Convert" version="opset1">
			<data destination_type="f32"/>
			<input>
				<port id="0">
					<dim>32</dim>
					<dim>8</dim>
					<dim>1</dim>
					<dim>1</dim>
				</port>
			</input>
			<output>
				<port id="1" precision="FP32">
					<dim>32</dim>
					<dim>8</dim>
					<dim>1</dim>
					<dim>1</dim>
				</port>
			</output>
		</layer>
		<layer id="83" name="bottleneck1_1/dim_inc/conv/fq_weights_1/mulpiply_by_scale" type="Multiply" version="opset1">
			<data auto_broadcast="numpy"/>
			<input>
				<port id="0">
					<dim>32</dim>
					<dim>8</dim>
					<dim>1</dim>
					<dim>1</dim>
				</port>
				<port id="1">
					<dim>32</dim>
					<dim>1</dim>
					<dim>1</dim>
					<dim>1</dim>
				</port>
			</input>
			<output>
				<port id="2" precision="FP32">
					<dim>32</dim>
					<dim>8</dim>
					<dim>1</dim>
					<dim>1</dim>
				</port>
			</output>
		</layer>
		<layer id="84" name="bottleneck1_1/dim_inc/conv" type="Convolution" version="opset1">
			<data auto_pad="explicit" strides="1,1" dilations="1,1" pads_begin="0,0" pads_end="0,0"/>
			<input>
				<port id="0">
					<dim>1</dim>
					<dim>8</dim>
					<dim>160</dim>
					<dim>272</dim>
				</port>
				<port id="1">
					<dim>32</dim>
					<dim>8</dim>
					<dim>1</dim>
					<dim>1</dim>
				</port>
			</input>
			<output>
				<port id="2" precision="FP32">
					<dim>1</dim>
					<dim>32</dim>
					<dim>160</dim>
					<dim>272</dim>
				</port>
			</output>
		</layer>
		<layer id="85" name="data_add_2447324478112028247" type="Const" version="opset1">
			<data offset="2046" size="64" shape="1,32,1,1" element_type="f16"/>
			<output>
				<port id="0" precision="FP16">
					<dim>1</dim>
					<dim>32</dim>
					<dim>1</dim>
					<dim>1</dim>
				</port>
			</output>
		</layer>
		<layer id="86" name="data_add_2447324478112013928/restored_convert" type="Convert" version="opset1">
			<data destination_type="f32"/>
			<rt_info>
				<attribute name="decompression" version="0"/>
			</rt_info>
			<input>
				<port id="0">
					<dim>1</dim>
					<dim>32</dim>
					<dim>1</dim>
					<dim>1</dim>
				</port>
			</input>
			<output>
				<port id="1" precision="FP32">
					<dim>1</dim>
					<dim>32</dim>
					<dim>1</dim>
					<dim>1</dim>
				</port>
			</output>
		</layer>
		<layer id="87" name="bottleneck1_1/dim_inc/bn/variance/Fused_Add_" type="Add" version="opset1">
			<data auto_broadcast="numpy"/>
			<input>
				<port id="0">
					<dim>1</dim>
					<dim>32</dim>
					<dim>160</dim>
					<dim>272</dim>
				</port>
				<port id="1">
					<dim>1</dim>
					<dim>32</dim>
					<dim>1</dim>
					<dim>1</dim>
				</port>
			</input>
			<output>
				<port id="2" precision="FP32" names="bottleneck1_1/dim_inc/conv">
					<dim>1</dim>
					<dim>32</dim>
					<dim>160</dim>
					<dim>272</dim>
				</port>
			</output>
		</layer>
		<layer id="88" name="bottleneck1_1/add/fq_input_1" type="FakeQuantize" version="opset1">
			<data levels="256" auto_broadcast="numpy"/>
			<input>
				<port id="0">
					<dim>1</dim>
					<dim>32</dim>
					<dim>160</dim>
					<dim>272</dim>
				</port>
				<port id="1"/>
				<port id="2"/>
				<port id="3"/>
				<port id="4"/>
			</input>
			<output>
				<port id="5" precision="FP32">
					<dim>1</dim>
					<dim>32</dim>
					<dim>160</dim>
					<dim>272</dim>
				</port>
			</output>
		</layer>
		<layer id="89" name="bottleneck1_1/add" type="Add" version="opset1">
			<data auto_broadcast="numpy"/>
			<input>
				<port id="0">
					<dim>1</dim>
					<dim>32</dim>
					<dim>160</dim>
					<dim>272</dim>
				</port>
				<port id="1">
					<dim>1</dim>
					<dim>32</dim>
					<dim>160</dim>
					<dim>272</dim>
				</port>
			</input>
			<output>
				<port id="2" precision="FP32" names="bottleneck1_1/add">
					<dim>1</dim>
					<dim>32</dim>
					<dim>160</dim>
					<dim>272</dim>
				</port>
			</output>
		</layer>
		<layer id="90" name="bottleneck1_1/fn/weights3096440454112427932" type="Const" version="opset1">
			<data offset="1500" size="2" shape="1" element_type="f16"/>
			<output>
				<port id="0" precision="FP16">
					<dim>1</dim>
				</port>
			</output>
		</layer>
		<layer id="91" name="bottleneck1_1/fn/weights3096440454112413929/restored_convert" type="Convert" version="opset1">
			<data destination_type="f32"/>
			<rt_info>
				<attribute name="decompression" version="0"/>
			</rt_info>
			<input>
				<port id="0">
					<dim>1</dim>
				</port>
			</input>
			<output>
				<port id="1" precision="FP32">
					<dim>1</dim>
				</port>
			</output>
		</layer>
		<layer id="92" name="bottleneck1_1/fn" type="PReLU" version="opset1">
			<input>
				<port id="0">
					<dim>1</dim>
					<dim>32</dim>
					<dim>160</dim>
					<dim>272</dim>
				</port>
				<port id="1">
					<dim>1</dim>
				</port>
			</input>
			<output>
				<port id="2" precision="FP32" names="bottleneck1_1/add">
					<dim>1</dim>
					<dim>32</dim>
					<dim>160</dim>
					<dim>272</dim>
				</port>
			</output>
		</layer>
		<layer id="93" name="bottleneck1_2/add/fq_input_0" type="FakeQuantize" version="opset1">
			<data levels="256" auto_broadcast="numpy"/>
			<input>
				<port id="0">
					<dim>1</dim>
					<dim>32</dim>
					<dim>160</dim>
					<dim>272</dim>
				</port>
				<port id="1"/>
				<port id="2"/>
				<port id="3"/>
				<port id="4"/>
			</input>
			<output>
				<port id="5" precision="FP32">
					<dim>1</dim>
					<dim>32</dim>
					<dim>160</dim>
					<dim>272</dim>
				</port>
			</output>
		</layer>
		<layer id="94" name="5027503126117" type="Const" version="opset1">
			<data offset="2110" size="4" shape="" element_type="f32"/>
			<output>
				<port id="0" precision="FP32"/>
			</output>
		</layer>
		<layer id="95" name="5028503225955" type="Const" version="opset1">
			<data offset="2114" size="4" shape="" element_type="f32"/>
			<output>
				<port id="0" precision="FP32"/>
			</output>
		</layer>
		<layer id="96" name="5029503327269" type="Const" version="opset1">
			<data offset="2110" size="4" shape="" element_type="f32"/>
			<output>
				<port id="0" precision="FP32"/>
			</output>
		</layer>
		<layer id="97" name="5030503429009" type="Const" version="opset1">
			<data offset="2114" size="4" shape="" element_type="f32"/>
			<output>
				<port id="0" precision="FP32"/>
			</output>
		</layer>
		<layer id="98" name="4957496126168" type="Const" version="opset1">
			<data offset="2118" size="4" shape="" element_type="f32"/>
			<output>
				<port id="0" precision="FP32"/>
			</output>
		</layer>
		<layer id="99" name="4958496228973" type="Const" version="opset1">
			<data offset="2122" size="4" shape="" element_type="f32"/>
			<output>
				<port id="0" precision="FP32"/>
			</output>
		</layer>
		<layer id="100" name="4959496325958" type="Const" version="opset1">
			<data offset="2118" size="4" shape="" element_type="f32"/>
			<output>
				<port id="0" precision="FP32"/>
			</output>
		</layer>
		<layer id="101" name="4960496426750" type="Const" version="opset1">
			<data offset="2122" size="4" shape="" element_type="f32"/>
			<output>
				<port id="0" precision="FP32"/>
			</output>
		</layer>
		<layer id="102" name="5457546126312" type="Const" version="opset1">
			<data offset="2126" size="32" shape="1,8,1,1" element_type="f32"/>
			<output>
				<port id="0" precision="FP32">
					<dim>1</dim>
					<dim>8</dim>
					<dim>1</dim>
					<dim>1</dim>
				</port>
			</output>
		</layer>
		<layer id="103" name="5458546229072" type="Const" version="opset1">
			<data offset="2158" size="32" shape="1,8,1,1" element_type="f32"/>
			<output>
				<port id="0" precision="FP32">
					<dim>1</dim>
					<dim>8</dim>
					<dim>1</dim>
					<dim>1</dim>
				</port>
			</output>
		</layer>
		<layer id="104" name="5459546327227" type="Const" version="opset1">
			<data offset="2126" size="32" shape="1,8,1,1" element_type="f32"/>
			<output>
				<port id="0" precision="FP32">
					<dim>1</dim>
					<dim>8</dim>
					<dim>1</dim>
					<dim>1</dim>
				</port>
			</output>
		</layer>
		<layer id="105" name="5460546427470" type="Const" version="opset1">
			<data offset="2158" size="32" shape="1,8,1,1" element_type="f32"/>
			<output>
				<port id="0" precision="FP32">
					<dim>1</dim>
					<dim>8</dim>
					<dim>1</dim>
					<dim>1</dim>
				</port>
			</output>
		</layer>
		<layer id="106" name="bottleneck1_2/dim_red/conv/fq_weights_1/scale1622125949" type="Const" version="opset1">
			<data offset="2190" size="32" shape="8,1,1,1" element_type="f32"/>
			<output>
				<port id="0" precision="FP32">
					<dim>8</dim>
					<dim>1</dim>
					<dim>1</dim>
					<dim>1</dim>
				</port>
			</output>
		</layer>
		<layer id="107" name="bottleneck1_2/dim_red/bn/mean/Fused_Mul__copy112713930/restored_convert/quantized1621328118" type="Const" version="opset1">
			<data offset="2222" size="256" shape="8,32,1,1" element_type="i8"/>
			<output>
				<port id="0" precision="I8">
					<dim>8</dim>
					<dim>32</dim>
					<dim>1</dim>
					<dim>1</dim>
				</port>
			</output>
		</layer>
		<layer id="108" name="bottleneck1_2/dim_red/bn/mean/Fused_Mul__copy112713930/restored_convert/quantized/to_f32" type="Convert" version="opset1">
			<data destination_type="f32"/>
			<input>
				<port id="0">
					<dim>8</dim>
					<dim>32</dim>
					<dim>1</dim>
					<dim>1</dim>
				</port>
			</input>
			<output>
				<port id="1" precision="FP32">
					<dim>8</dim>
					<dim>32</dim>
					<dim>1</dim>
					<dim>1</dim>
				</port>
			</output>
		</layer>
		<layer id="109" name="bottleneck1_2/dim_red/conv/fq_weights_1/mulpiply_by_scale" type="Multiply" version="opset1">
			<data auto_broadcast="numpy"/>
			<input>
				<port id="0">
					<dim>8</dim>
					<dim>32</dim>
					<dim>1</dim>
					<dim>1</dim>
				</port>
				<port id="1">
					<dim>8</dim>
					<dim>1</dim>
					<dim>1</dim>
					<dim>1</dim>
				</port>
			</input>
			<output>
				<port id="2" precision="FP32">
					<dim>8</dim>
					<dim>32</dim>
					<dim>1</dim>
					<dim>1</dim>
				</port>
			</output>
		</layer>
		<layer id="110" name="bottleneck1_2/dim_red/conv" type="Convolution" version="opset1">
			<data auto_pad="explicit" strides="1,1" dilations="1,1" pads_begin="0,0" pads_end="0,0"/>
			<input>
				<port id="0">
					<dim>1</dim>
					<dim>32</dim>
					<dim>160</dim>
					<dim>272</dim>
				</port>
				<port id="1">
					<dim>8</dim>
					<dim>32</dim>
					<dim>1</dim>
					<dim>1</dim>
				</port>
			</input>
			<output>
				<port id="2" precision="FP32">
					<dim>1</dim>
					<dim>8</dim>
					<dim>160</dim>
					<dim>272</dim>
				</port>
			</output>
		</layer>
		<layer id="111" name="data_add_2448124486113027500" type="Const" version="opset1">
			<data offset="2478" size="16" shape="1,8,1,1" element_type="f16"/>
			<output>
				<port id="0" precision="FP16">
					<dim>1</dim>
					<dim>8</dim>
					<dim>1</dim>
					<dim>1</dim>
				</port>
			</output>
		</layer>
		<layer id="112" name="data_add_2448124486113013931/restored_convert" type="Convert" version="opset1">
			<data destination_type="f32"/>
			<rt_info>
				<attribute name="decompression" version="0"/>
			</rt_info>
			<input>
				<port id="0">
					<dim>1</dim>
					<dim>8</dim>
					<dim>1</dim>
					<dim>1</dim>
				</port>
			</input>
			<output>
				<port id="1" precision="FP32">
					<dim>1</dim>
					<dim>8</dim>
					<dim>1</dim>
					<dim>1</dim>
				</port>
			</output>
		</layer>
		<layer id="113" name="bottleneck1_2/dim_red/bn/variance/Fused_Add_" type="Add" version="opset1">
			<data auto_broadcast="numpy"/>
			<input>
				<port id="0">
					<dim>1</dim>
					<dim>8</dim>
					<dim>160</dim>
					<dim>272</dim>
				</port>
				<port id="1">
					<dim>1</dim>
					<dim>8</dim>
					<dim>1</dim>
					<dim>1</dim>
				</port>
			</input>
			<output>
				<port id="2" precision="FP32" names="bottleneck1_2/dim_red/conv">
					<dim>1</dim>
					<dim>8</dim>
					<dim>160</dim>
					<dim>272</dim>
				</port>
			</output>
		</layer>
		<layer id="114" name="bottleneck1_2/dim_red/fn/weights3089640469113328304" type="Const" version="opset1">
			<data offset="1500" size="2" shape="1" element_type="f16"/>
			<output>
				<port id="0" precision="FP16">
					<dim>1</dim>
				</port>
			</output>
		</layer>
		<layer id="115" name="bottleneck1_2/dim_red/fn/weights3089640469113313932/restored_convert" type="Convert" version="opset1">
			<data destination_type="f32"/>
			<rt_info>
				<attribute name="decompression" version="0"/>
			</rt_info>
			<input>
				<port id="0">
					<dim>1</dim>
				</port>
			</input>
			<output>
				<port id="1" precision="FP32">
					<dim>1</dim>
				</port>
			</output>
		</layer>
		<layer id="116" name="bottleneck1_2/dim_red/fn" type="PReLU" version="opset1">
			<input>
				<port id="0">
					<dim>1</dim>
					<dim>8</dim>
					<dim>160</dim>
					<dim>272</dim>
				</port>
				<port id="1">
					<dim>1</dim>
				</port>
			</input>
			<output>
				<port id="2" precision="FP32" names="bottleneck1_2/dim_red/conv">
					<dim>1</dim>
					<dim>8</dim>
					<dim>160</dim>
					<dim>272</dim>
				</port>
			</output>
		</layer>
		<layer id="117" name="bottleneck1_2/inner/dw1/conv/fq_input_0" type="FakeQuantize" version="opset1">
			<data levels="256" auto_broadcast="numpy"/>
			<input>
				<port id="0">
					<dim>1</dim>
					<dim>8</dim>
					<dim>160</dim>
					<dim>272</dim>
				</port>
				<port id="1">
					<dim>1</dim>
					<dim>8</dim>
					<dim>1</dim>
					<dim>1</dim>
				</port>
				<port id="2">
					<dim>1</dim>
					<dim>8</dim>
					<dim>1</dim>
					<dim>1</dim>
				</port>
				<port id="3">
					<dim>1</dim>
					<dim>8</dim>
					<dim>1</dim>
					<dim>1</dim>
				</port>
				<port id="4">
					<dim>1</dim>
					<dim>8</dim>
					<dim>1</dim>
					<dim>1</dim>
				</port>
			</input>
			<output>
				<port id="5" precision="FP32">
					<dim>1</dim>
					<dim>8</dim>
					<dim>160</dim>
					<dim>272</dim>
				</port>
			</output>
		</layer>
		<layer id="118" name="bottleneck1_2/inner/dw1/conv/weights_shape2297127044" type="Const" version="opset1">
			<data offset="1502" size="40" shape="5" element_type="i64"/>
			<output>
				<port id="0" precision="I64">
					<dim>5</dim>
				</port>
			</output>
		</layer>
		<layer id="119" name="bottleneck1_2/inner/dw1/conv/fq_weights_1/scale1739128589" type="Const" version="opset1">
			<data offset="2494" size="32" shape="8,1,1,1" element_type="f32"/>
			<output>
				<port id="0" precision="FP32">
					<dim>8</dim>
					<dim>1</dim>
					<dim>1</dim>
					<dim>1</dim>
				</port>
			</output>
		</layer>
		<layer id="120" name="bottleneck1_2/inner/dw1/bn/mean/Fused_Mul__copy113613933/restored_convert/quantized1738326648" type="Const" version="opset1">
			<data offset="2526" size="72" shape="8,1,3,3" element_type="i8"/>
			<output>
				<port id="0" precision="I8">
					<dim>8</dim>
					<dim>1</dim>
					<dim>3</dim>
					<dim>3</dim>
				</port>
			</output>
		</layer>
		<layer id="121" name="bottleneck1_2/inner/dw1/bn/mean/Fused_Mul__copy113613933/restored_convert/quantized/to_f32" type="Convert" version="opset1">
			<data destination_type="f32"/>
			<input>
				<port id="0">
					<dim>8</dim>
					<dim>1</dim>
					<dim>3</dim>
					<dim>3</dim>
				</port>
			</input>
			<output>
				<port id="1" precision="FP32">
					<dim>8</dim>
					<dim>1</dim>
					<dim>3</dim>
					<dim>3</dim>
				</port>
			</output>
		</layer>
		<layer id="122" name="bottleneck1_2/inner/dw1/conv/fq_weights_1/mulpiply_by_scale" type="Multiply" version="opset1">
			<data auto_broadcast="numpy"/>
			<input>
				<port id="0">
					<dim>8</dim>
					<dim>1</dim>
					<dim>3</dim>
					<dim>3</dim>
				</port>
				<port id="1">
					<dim>8</dim>
					<dim>1</dim>
					<dim>1</dim>
					<dim>1</dim>
				</port>
			</input>
			<output>
				<port id="2" precision="FP32">
					<dim>8</dim>
					<dim>1</dim>
					<dim>3</dim>
					<dim>3</dim>
				</port>
			</output>
		</layer>
		<layer id="123" name="22970" type="Reshape" version="opset1">
			<data special_zero="true"/>
			<input>
				<port id="0">
					<dim>8</dim>
					<dim>1</dim>
					<dim>3</dim>
					<dim>3</dim>
				</port>
				<port id="1">
					<dim>5</dim>
				</port>
			</input>
			<output>
				<port id="2" precision="FP32">
					<dim>8</dim>
					<dim>1</dim>
					<dim>1</dim>
					<dim>3</dim>
					<dim>3</dim>
				</port>
			</output>
		</layer>
		<layer id="124" name="bottleneck1_2/inner/dw1/conv" type="GroupConvolution" version="opset1">
			<data auto_pad="explicit" strides="1,1" dilations="1,1" pads_begin="1,1" pads_end="1,1"/>
			<input>
				<port id="0">
					<dim>1</dim>
					<dim>8</dim>
					<dim>160</dim>
					<dim>272</dim>
				</port>
				<port id="1">
					<dim>8</dim>
					<dim>1</dim>
					<dim>1</dim>
					<dim>3</dim>
					<dim>3</dim>
				</port>
			</input>
			<output>
				<port id="2" precision="FP32">
					<dim>1</dim>
					<dim>8</dim>
					<dim>160</dim>
					<dim>272</dim>
				</port>
			</output>
		</layer>
		<layer id="125" name="data_add_2448924494113928301" type="Const" version="opset1">
			<data offset="2598" size="16" shape="1,8,1,1" element_type="f16"/>
			<output>
				<port id="0" precision="FP16">
					<dim>1</dim>
					<dim>8</dim>
					<dim>1</dim>
					<dim>1</dim>
				</port>
			</output>
		</layer>
		<layer id="126" name="data_add_2448924494113913934/restored_convert" type="Convert" version="opset1">
			<data destination_type="f32"/>
			<rt_info>
				<attribute name="decompression" version="0"/>
			</rt_info>
			<input>
				<port id="0">
					<dim>1</dim>
					<dim>8</dim>
					<dim>1</dim>
					<dim>1</dim>
				</port>
			</input>
			<output>
				<port id="1" precision="FP32">
					<dim>1</dim>
					<dim>8</dim>
					<dim>1</dim>
					<dim>1</dim>
				</port>
			</output>
		</layer>
		<layer id="127" name="bottleneck1_2/inner/dw1/bn/variance/Fused_Add_" type="Add" version="opset1">
			<data auto_broadcast="numpy"/>
			<input>
				<port id="0">
					<dim>1</dim>
					<dim>8</dim>
					<dim>160</dim>
					<dim>272</dim>
				</port>
				<port id="1">
					<dim>1</dim>
					<dim>8</dim>
					<dim>1</dim>
					<dim>1</dim>
				</port>
			</input>
			<output>
				<port id="2" precision="FP32" names="bottleneck1_2/inner/dw1/conv">
					<dim>1</dim>
					<dim>8</dim>
					<dim>160</dim>
					<dim>272</dim>
				</port>
			</output>
		</layer>
		<layer id="128" name="bottleneck1_2/inner/dw1/fn/weights3112840238114229042" type="Const" version="opset1">
			<data offset="1500" size="2" shape="1" element_type="f16"/>
			<output>
				<port id="0" precision="FP16">
					<dim>1</dim>
				</port>
			</output>
		</layer>
		<layer id="129" name="bottleneck1_2/inner/dw1/fn/weights3112840238114213935/restored_convert" type="Convert" version="opset1">
			<data destination_type="f32"/>
			<rt_info>
				<attribute name="decompression" version="0"/>
			</rt_info>
			<input>
				<port id="0">
					<dim>1</dim>
				</port>
			</input>
			<output>
				<port id="1" precision="FP32">
					<dim>1</dim>
				</port>
			</output>
		</layer>
		<layer id="130" name="bottleneck1_2/inner/dw1/fn" type="PReLU" version="opset1">
			<input>
				<port id="0">
					<dim>1</dim>
					<dim>8</dim>
					<dim>160</dim>
					<dim>272</dim>
				</port>
				<port id="1">
					<dim>1</dim>
				</port>
			</input>
			<output>
				<port id="2" precision="FP32" names="bottleneck1_2/inner/dw1/conv">
					<dim>1</dim>
					<dim>8</dim>
					<dim>160</dim>
					<dim>272</dim>
				</port>
			</output>
		</layer>
		<layer id="131" name="bottleneck1_2/dim_inc/conv/fq_input_0" type="FakeQuantize" version="opset1">
			<data levels="256" auto_broadcast="numpy"/>
			<input>
				<port id="0">
					<dim>1</dim>
					<dim>8</dim>
					<dim>160</dim>
					<dim>272</dim>
				</port>
				<port id="1"/>
				<port id="2"/>
				<port id="3"/>
				<port id="4"/>
			</input>
			<output>
				<port id="5" precision="FP32">
					<dim>1</dim>
					<dim>8</dim>
					<dim>160</dim>
					<dim>272</dim>
				</port>
			</output>
		</layer>
		<layer id="132" name="bottleneck1_2/dim_inc/conv/fq_weights_1/scale1898127899" type="Const" version="opset1">
			<data offset="2614" size="128" shape="32,1,1,1" element_type="f32"/>
			<output>
				<port id="0" precision="FP32">
					<dim>32</dim>
					<dim>1</dim>
					<dim>1</dim>
					<dim>1</dim>
				</port>
			</output>
		</layer>
		<layer id="133" name="bottleneck1_2/dim_inc/bn/mean/Fused_Mul__copy114513936/restored_convert/quantized1897325829" type="Const" version="opset1">
			<data offset="2742" size="256" shape="32,8,1,1" element_type="i8"/>
			<output>
				<port id="0" precision="I8">
					<dim>32</dim>
					<dim>8</dim>
					<dim>1</dim>
					<dim>1</dim>
				</port>
			</output>
		</layer>
		<layer id="134" name="bottleneck1_2/dim_inc/bn/mean/Fused_Mul__copy114513936/restored_convert/quantized/to_f32" type="Convert" version="opset1">
			<data destination_type="f32"/>
			<input>
				<port id="0">
					<dim>32</dim>
					<dim>8</dim>
					<dim>1</dim>
					<dim>1</dim>
				</port>
			</input>
			<output>
				<port id="1" precision="FP32">
					<dim>32</dim>
					<dim>8</dim>
					<dim>1</dim>
					<dim>1</dim>
				</port>
			</output>
		</layer>
		<layer id="135" name="bottleneck1_2/dim_inc/conv/fq_weights_1/mulpiply_by_scale" type="Multiply" version="opset1">
			<data auto_broadcast="numpy"/>
			<input>
				<port id="0">
					<dim>32</dim>
					<dim>8</dim>
					<dim>1</dim>
					<dim>1</dim>
				</port>
				<port id="1">
					<dim>32</dim>
					<dim>1</dim>
					<dim>1</dim>
					<dim>1</dim>
				</port>
			</input>
			<output>
				<port id="2" precision="FP32">
					<dim>32</dim>
					<dim>8</dim>
					<dim>1</dim>
					<dim>1</dim>
				</port>
			</output>
		</layer>
		<layer id="136" name="bottleneck1_2/dim_inc/conv" type="Convolution" version="opset1">
			<data auto_pad="explicit" strides="1,1" dilations="1,1" pads_begin="0,0" pads_end="0,0"/>
			<input>
				<port id="0">
					<dim>1</dim>
					<dim>8</dim>
					<dim>160</dim>
					<dim>272</dim>
				</port>
				<port id="1">
					<dim>32</dim>
					<dim>8</dim>
					<dim>1</dim>
					<dim>1</dim>
				</port>
			</input>
			<output>
				<port id="2" precision="FP32">
					<dim>1</dim>
					<dim>32</dim>
					<dim>160</dim>
					<dim>272</dim>
				</port>
			</output>
		</layer>
		<layer id="137" name="data_add_2449724502114828463" type="Const" version="opset1">
			<data offset="2998" size="64" shape="1,32,1,1" element_type="f16"/>
			<output>
				<port id="0" precision="FP16">
					<dim>1</dim>
					<dim>32</dim>
					<dim>1</dim>
					<dim>1</dim>
				</port>
			</output>
		</layer>
		<layer id="138" name="data_add_2449724502114813937/restored_convert" type="Convert" version="opset1">
			<data destination_type="f32"/>
			<rt_info>
				<attribute name="decompression" version="0"/>
			</rt_info>
			<input>
				<port id="0">
					<dim>1</dim>
					<dim>32</dim>
					<dim>1</dim>
					<dim>1</dim>
				</port>
			</input>
			<output>
				<port id="1" precision="FP32">
					<dim>1</dim>
					<dim>32</dim>
					<dim>1</dim>
					<dim>1</dim>
				</port>
			</output>
		</layer>
		<layer id="139" name="bottleneck1_2/dim_inc/bn/variance/Fused_Add_" type="Add" version="opset1">
			<data auto_broadcast="numpy"/>
			<input>
				<port id="0">
					<dim>1</dim>
					<dim>32</dim>
					<dim>160</dim>
					<dim>272</dim>
				</port>
				<port id="1">
					<dim>1</dim>
					<dim>32</dim>
					<dim>1</dim>
					<dim>1</dim>
				</port>
			</input>
			<output>
				<port id="2" precision="FP32" names="bottleneck1_2/dim_inc/conv">
					<dim>1</dim>
					<dim>32</dim>
					<dim>160</dim>
					<dim>272</dim>
				</port>
			</output>
		</layer>
		<layer id="140" name="bottleneck1_2/add/fq_input_1" type="FakeQuantize" version="opset1">
			<data levels="256" auto_broadcast="numpy"/>
			<input>
				<port id="0">
					<dim>1</dim>
					<dim>32</dim>
					<dim>160</dim>
					<dim>272</dim>
				</port>
				<port id="1"/>
				<port id="2"/>
				<port id="3"/>
				<port id="4"/>
			</input>
			<output>
				<port id="5" precision="FP32">
					<dim>1</dim>
					<dim>32</dim>
					<dim>160</dim>
					<dim>272</dim>
				</port>
			</output>
		</layer>
		<layer id="141" name="bottleneck1_2/add" type="Add" version="opset1">
			<data auto_broadcast="numpy"/>
			<input>
				<port id="0">
					<dim>1</dim>
					<dim>32</dim>
					<dim>160</dim>
					<dim>272</dim>
				</port>
				<port id="1">
					<dim>1</dim>
					<dim>32</dim>
					<dim>160</dim>
					<dim>272</dim>
				</port>
			</input>
			<output>
				<port id="2" precision="FP32" names="bottleneck1_2/add">
					<dim>1</dim>
					<dim>32</dim>
					<dim>160</dim>
					<dim>272</dim>
				</port>
			</output>
		</layer>
		<layer id="142" name="bottleneck1_2/fn/weights3120040331115228703" type="Const" version="opset1">
			<data offset="1500" size="2" shape="1" element_type="f16"/>
			<output>
				<port id="0" precision="FP16">
					<dim>1</dim>
				</port>
			</output>
		</layer>
		<layer id="143" name="bottleneck1_2/fn/weights3120040331115213938/restored_convert" type="Convert" version="opset1">
			<data destination_type="f32"/>
			<rt_info>
				<attribute name="decompression" version="0"/>
			</rt_info>
			<input>
				<port id="0">
					<dim>1</dim>
				</port>
			</input>
			<output>
				<port id="1" precision="FP32">
					<dim>1</dim>
				</port>
			</output>
		</layer>
		<layer id="144" name="bottleneck1_2/fn" type="PReLU" version="opset1">
			<input>
				<port id="0">
					<dim>1</dim>
					<dim>32</dim>
					<dim>160</dim>
					<dim>272</dim>
				</port>
				<port id="1">
					<dim>1</dim>
				</port>
			</input>
			<output>
				<port id="2" precision="FP32" names="bottleneck1_2/add">
					<dim>1</dim>
					<dim>32</dim>
					<dim>160</dim>
					<dim>272</dim>
				</port>
			</output>
		</layer>
		<layer id="145" name="bottleneck1_3/add/fq_input_0" type="FakeQuantize" version="opset1">
			<data levels="256" auto_broadcast="numpy"/>
			<input>
				<port id="0">
					<dim>1</dim>
					<dim>32</dim>
					<dim>160</dim>
					<dim>272</dim>
				</port>
				<port id="1"/>
				<port id="2"/>
				<port id="3"/>
				<port id="4"/>
			</input>
			<output>
				<port id="5" precision="FP32">
					<dim>1</dim>
					<dim>32</dim>
					<dim>160</dim>
					<dim>272</dim>
				</port>
			</output>
		</layer>
		<layer id="146" name="5847585128733" type="Const" version="opset1">
			<data offset="3062" size="4" shape="" element_type="f32"/>
			<output>
				<port id="0" precision="FP32"/>
			</output>
		</layer>
		<layer id="147" name="5848585226297" type="Const" version="opset1">
			<data offset="3066" size="4" shape="" element_type="f32"/>
			<output>
				<port id="0" precision="FP32"/>
			</output>
		</layer>
		<layer id="148" name="5849585326240" type="Const" version="opset1">
			<data offset="3062" size="4" shape="" element_type="f32"/>
			<output>
				<port id="0" precision="FP32"/>
			</output>
		</layer>
		<layer id="149" name="5850585426054" type="Const" version="opset1">
			<data offset="3066" size="4" shape="" element_type="f32"/>
			<output>
				<port id="0" precision="FP32"/>
			</output>
		</layer>
		<layer id="150" name="6217622126642" type="Const" version="opset1">
			<data offset="3070" size="4" shape="" element_type="f32"/>
			<output>
				<port id="0" precision="FP32"/>
			</output>
		</layer>
		<layer id="151" name="6218622226480" type="Const" version="opset1">
			<data offset="3074" size="4" shape="" element_type="f32"/>
			<output>
				<port id="0" precision="FP32"/>
			</output>
		</layer>
		<layer id="152" name="6219622328574" type="Const" version="opset1">
			<data offset="3070" size="4" shape="" element_type="f32"/>
			<output>
				<port id="0" precision="FP32"/>
			</output>
		</layer>
		<layer id="153" name="6220622427263" type="Const" version="opset1">
			<data offset="3074" size="4" shape="" element_type="f32"/>
			<output>
				<port id="0" precision="FP32"/>
			</output>
		</layer>
		<layer id="154" name="4577458127362" type="Const" version="opset1">
			<data offset="3078" size="32" shape="1,8,1,1" element_type="f32"/>
			<output>
				<port id="0" precision="FP32">
					<dim>1</dim>
					<dim>8</dim>
					<dim>1</dim>
					<dim>1</dim>
				</port>
			</output>
		</layer>
		<layer id="155" name="4578458228598" type="Const" version="opset1">
			<data offset="3110" size="32" shape="1,8,1,1" element_type="f32"/>
			<output>
				<port id="0" precision="FP32">
					<dim>1</dim>
					<dim>8</dim>
					<dim>1</dim>
					<dim>1</dim>
				</port>
			</output>
		</layer>
		<layer id="156" name="4579458326636" type="Const" version="opset1">
			<data offset="3078" size="32" shape="1,8,1,1" element_type="f32"/>
			<output>
				<port id="0" precision="FP32">
					<dim>1</dim>
					<dim>8</dim>
					<dim>1</dim>
					<dim>1</dim>
				</port>
			</output>
		</layer>
		<layer id="157" name="4580458427695" type="Const" version="opset1">
			<data offset="3110" size="32" shape="1,8,1,1" element_type="f32"/>
			<output>
				<port id="0" precision="FP32">
					<dim>1</dim>
					<dim>8</dim>
					<dim>1</dim>
					<dim>1</dim>
				</port>
			</output>
		</layer>
		<layer id="158" name="bottleneck1_3/dim_red/conv/fq_weights_1/scale1811126135" type="Const" version="opset1">
			<data offset="3142" size="32" shape="8,1,1,1" element_type="f32"/>
			<output>
				<port id="0" precision="FP32">
					<dim>8</dim>
					<dim>1</dim>
					<dim>1</dim>
					<dim>1</dim>
				</port>
			</output>
		</layer>
		<layer id="159" name="bottleneck1_3/dim_red/bn/mean/Fused_Mul__copy115513939/restored_convert/quantized1810327440" type="Const" version="opset1">
			<data offset="3174" size="256" shape="8,32,1,1" element_type="i8"/>
			<output>
				<port id="0" precision="I8">
					<dim>8</dim>
					<dim>32</dim>
					<dim>1</dim>
					<dim>1</dim>
				</port>
			</output>
		</layer>
		<layer id="160" name="bottleneck1_3/dim_red/bn/mean/Fused_Mul__copy115513939/restored_convert/quantized/to_f32" type="Convert" version="opset1">
			<data destination_type="f32"/>
			<input>
				<port id="0">
					<dim>8</dim>
					<dim>32</dim>
					<dim>1</dim>
					<dim>1</dim>
				</port>
			</input>
			<output>
				<port id="1" precision="FP32">
					<dim>8</dim>
					<dim>32</dim>
					<dim>1</dim>
					<dim>1</dim>
				</port>
			</output>
		</layer>
		<layer id="161" name="bottleneck1_3/dim_red/conv/fq_weights_1/mulpiply_by_scale" type="Multiply" version="opset1">
			<data auto_broadcast="numpy"/>
			<input>
				<port id="0">
					<dim>8</dim>
					<dim>32</dim>
					<dim>1</dim>
					<dim>1</dim>
				</port>
				<port id="1">
					<dim>8</dim>
					<dim>1</dim>
					<dim>1</dim>
					<dim>1</dim>
				</port>
			</input>
			<output>
				<port id="2" precision="FP32">
					<dim>8</dim>
					<dim>32</dim>
					<dim>1</dim>
					<dim>1</dim>
				</port>
			</output>
		</layer>
		<layer id="162" name="bottleneck1_3/dim_red/conv" type="Convolution" version="opset1">
			<data auto_pad="explicit" strides="1,1" dilations="1,1" pads_begin="0,0" pads_end="0,0"/>
			<input>
				<port id="0">
					<dim>1</dim>
					<dim>32</dim>
					<dim>160</dim>
					<dim>272</dim>
				</port>
				<port id="1">
					<dim>8</dim>
					<dim>32</dim>
					<dim>1</dim>
					<dim>1</dim>
				</port>
			</input>
			<output>
				<port id="2" precision="FP32">
					<dim>1</dim>
					<dim>8</dim>
					<dim>160</dim>
					<dim>272</dim>
				</port>
			</output>
		</layer>
		<layer id="163" name="data_add_2450524510115827392" type="Const" version="opset1">
			<data offset="3430" size="16" shape="1,8,1,1" element_type="f16"/>
			<output>
				<port id="0" precision="FP16">
					<dim>1</dim>
					<dim>8</dim>
					<dim>1</dim>
					<dim>1</dim>
				</port>
			</output>
		</layer>
		<layer id="164" name="data_add_2450524510115813940/restored_convert" type="Convert" version="opset1">
			<data destination_type="f32"/>
			<rt_info>
				<attribute name="decompression" version="0"/>
			</rt_info>
			<input>
				<port id="0">
					<dim>1</dim>
					<dim>8</dim>
					<dim>1</dim>
					<dim>1</dim>
				</port>
			</input>
			<output>
				<port id="1" precision="FP32">
					<dim>1</dim>
					<dim>8</dim>
					<dim>1</dim>
					<dim>1</dim>
				</port>
			</output>
		</layer>
		<layer id="165" name="bottleneck1_3/dim_red/bn/variance/Fused_Add_" type="Add" version="opset1">
			<data auto_broadcast="numpy"/>
			<input>
				<port id="0">
					<dim>1</dim>
					<dim>8</dim>
					<dim>160</dim>
					<dim>272</dim>
				</port>
				<port id="1">
					<dim>1</dim>
					<dim>8</dim>
					<dim>1</dim>
					<dim>1</dim>
				</port>
			</input>
			<output>
				<port id="2" precision="FP32" names="bottleneck1_3/dim_red/conv">
					<dim>1</dim>
					<dim>8</dim>
					<dim>160</dim>
					<dim>272</dim>
				</port>
			</output>
		</layer>
		<layer id="166" name="bottleneck1_3/dim_red/fn/weights3117640982116128190" type="Const" version="opset1">
			<data offset="1500" size="2" shape="1" element_type="f16"/>
			<output>
				<port id="0" precision="FP16">
					<dim>1</dim>
				</port>
			</output>
		</layer>
		<layer id="167" name="bottleneck1_3/dim_red/fn/weights3117640982116113941/restored_convert" type="Convert" version="opset1">
			<data destination_type="f32"/>
			<rt_info>
				<attribute name="decompression" version="0"/>
			</rt_info>
			<input>
				<port id="0">
					<dim>1</dim>
				</port>
			</input>
			<output>
				<port id="1" precision="FP32">
					<dim>1</dim>
				</port>
			</output>
		</layer>
		<layer id="168" name="bottleneck1_3/dim_red/fn" type="PReLU" version="opset1">
			<input>
				<port id="0">
					<dim>1</dim>
					<dim>8</dim>
					<dim>160</dim>
					<dim>272</dim>
				</port>
				<port id="1">
					<dim>1</dim>
				</port>
			</input>
			<output>
				<port id="2" precision="FP32" names="bottleneck1_3/dim_red/conv">
					<dim>1</dim>
					<dim>8</dim>
					<dim>160</dim>
					<dim>272</dim>
				</port>
			</output>
		</layer>
		<layer id="169" name="bottleneck1_3/inner/dw1/conv/fq_input_0" type="FakeQuantize" version="opset1">
			<data levels="256" auto_broadcast="numpy"/>
			<input>
				<port id="0">
					<dim>1</dim>
					<dim>8</dim>
					<dim>160</dim>
					<dim>272</dim>
				</port>
				<port id="1">
					<dim>1</dim>
					<dim>8</dim>
					<dim>1</dim>
					<dim>1</dim>
				</port>
				<port id="2">
					<dim>1</dim>
					<dim>8</dim>
					<dim>1</dim>
					<dim>1</dim>
				</port>
				<port id="3">
					<dim>1</dim>
					<dim>8</dim>
					<dim>1</dim>
					<dim>1</dim>
				</port>
				<port id="4">
					<dim>1</dim>
					<dim>8</dim>
					<dim>1</dim>
					<dim>1</dim>
				</port>
			</input>
			<output>
				<port id="5" precision="FP32">
					<dim>1</dim>
					<dim>8</dim>
					<dim>160</dim>
					<dim>272</dim>
				</port>
			</output>
		</layer>
		<layer id="170" name="bottleneck1_3/inner/dw1/conv/weights_shape2298526753" type="Const" version="opset1">
			<data offset="1502" size="40" shape="5" element_type="i64"/>
			<output>
				<port id="0" precision="I64">
					<dim>5</dim>
				</port>
			</output>
		</layer>
		<layer id="171" name="bottleneck1_3/inner/dw1/conv/fq_weights_1/scale1859127839" type="Const" version="opset1">
			<data offset="3446" size="32" shape="8,1,1,1" element_type="f32"/>
			<output>
				<port id="0" precision="FP32">
					<dim>8</dim>
					<dim>1</dim>
					<dim>1</dim>
					<dim>1</dim>
				</port>
			</output>
		</layer>
		<layer id="172" name="bottleneck1_3/inner/dw1/bn/mean/Fused_Mul__copy116413942/restored_convert/quantized1858328898" type="Const" version="opset1">
			<data offset="3478" size="72" shape="8,1,3,3" element_type="i8"/>
			<output>
				<port id="0" precision="I8">
					<dim>8</dim>
					<dim>1</dim>
					<dim>3</dim>
					<dim>3</dim>
				</port>
			</output>
		</layer>
		<layer id="173" name="bottleneck1_3/inner/dw1/bn/mean/Fused_Mul__copy116413942/restored_convert/quantized/to_f32" type="Convert" version="opset1">
			<data destination_type="f32"/>
			<input>
				<port id="0">
					<dim>8</dim>
					<dim>1</dim>
					<dim>3</dim>
					<dim>3</dim>
				</port>
			</input>
			<output>
				<port id="1" precision="FP32">
					<dim>8</dim>
					<dim>1</dim>
					<dim>3</dim>
					<dim>3</dim>
				</port>
			</output>
		</layer>
		<layer id="174" name="bottleneck1_3/inner/dw1/conv/fq_weights_1/mulpiply_by_scale" type="Multiply" version="opset1">
			<data auto_broadcast="numpy"/>
			<input>
				<port id="0">
					<dim>8</dim>
					<dim>1</dim>
					<dim>3</dim>
					<dim>3</dim>
				</port>
				<port id="1">
					<dim>8</dim>
					<dim>1</dim>
					<dim>1</dim>
					<dim>1</dim>
				</port>
			</input>
			<output>
				<port id="2" precision="FP32">
					<dim>8</dim>
					<dim>1</dim>
					<dim>3</dim>
					<dim>3</dim>
				</port>
			</output>
		</layer>
		<layer id="175" name="22984" type="Reshape" version="opset1">
			<data special_zero="true"/>
			<input>
				<port id="0">
					<dim>8</dim>
					<dim>1</dim>
					<dim>3</dim>
					<dim>3</dim>
				</port>
				<port id="1">
					<dim>5</dim>
				</port>
			</input>
			<output>
				<port id="2" precision="FP32">
					<dim>8</dim>
					<dim>1</dim>
					<dim>1</dim>
					<dim>3</dim>
					<dim>3</dim>
				</port>
			</output>
		</layer>
		<layer id="176" name="bottleneck1_3/inner/dw1/conv" type="GroupConvolution" version="opset1">
			<data auto_pad="explicit" strides="1,1" dilations="1,1" pads_begin="1,1" pads_end="1,1"/>
			<input>
				<port id="0">
					<dim>1</dim>
					<dim>8</dim>
					<dim>160</dim>
					<dim>272</dim>
				</port>
				<port id="1">
					<dim>8</dim>
					<dim>1</dim>
					<dim>1</dim>
					<dim>3</dim>
					<dim>3</dim>
				</port>
			</input>
			<output>
				<port id="2" precision="FP32">
					<dim>1</dim>
					<dim>8</dim>
					<dim>160</dim>
					<dim>272</dim>
				</port>
			</output>
		</layer>
		<layer id="177" name="data_add_2451324518116726960" type="Const" version="opset1">
			<data offset="3550" size="16" shape="1,8,1,1" element_type="f16"/>
			<output>
				<port id="0" precision="FP16">
					<dim>1</dim>
					<dim>8</dim>
					<dim>1</dim>
					<dim>1</dim>
				</port>
			</output>
		</layer>
		<layer id="178" name="data_add_2451324518116713943/restored_convert" type="Convert" version="opset1">
			<data destination_type="f32"/>
			<rt_info>
				<attribute name="decompression" version="0"/>
			</rt_info>
			<input>
				<port id="0">
					<dim>1</dim>
					<dim>8</dim>
					<dim>1</dim>
					<dim>1</dim>
				</port>
			</input>
			<output>
				<port id="1" precision="FP32">
					<dim>1</dim>
					<dim>8</dim>
					<dim>1</dim>
					<dim>1</dim>
				</port>
			</output>
		</layer>
		<layer id="179" name="bottleneck1_3/inner/dw1/bn/variance/Fused_Add_" type="Add" version="opset1">
			<data auto_broadcast="numpy"/>
			<input>
				<port id="0">
					<dim>1</dim>
					<dim>8</dim>
					<dim>160</dim>
					<dim>272</dim>
				</port>
				<port id="1">
					<dim>1</dim>
					<dim>8</dim>
					<dim>1</dim>
					<dim>1</dim>
				</port>
			</input>
			<output>
				<port id="2" precision="FP32" names="bottleneck1_3/inner/dw1/conv">
					<dim>1</dim>
					<dim>8</dim>
					<dim>160</dim>
					<dim>272</dim>
				</port>
			</output>
		</layer>
		<layer id="180" name="bottleneck1_3/inner/dw1/fn/weights3095640850117028160" type="Const" version="opset1">
			<data offset="1500" size="2" shape="1" element_type="f16"/>
			<output>
				<port id="0" precision="FP16">
					<dim>1</dim>
				</port>
			</output>
		</layer>
		<layer id="181" name="bottleneck1_3/inner/dw1/fn/weights3095640850117013944/restored_convert" type="Convert" version="opset1">
			<data destination_type="f32"/>
			<rt_info>
				<attribute name="decompression" version="0"/>
			</rt_info>
			<input>
				<port id="0">
					<dim>1</dim>
				</port>
			</input>
			<output>
				<port id="1" precision="FP32">
					<dim>1</dim>
				</port>
			</output>
		</layer>
		<layer id="182" name="bottleneck1_3/inner/dw1/fn" type="PReLU" version="opset1">
			<input>
				<port id="0">
					<dim>1</dim>
					<dim>8</dim>
					<dim>160</dim>
					<dim>272</dim>
				</port>
				<port id="1">
					<dim>1</dim>
				</port>
			</input>
			<output>
				<port id="2" precision="FP32" names="bottleneck1_3/inner/dw1/conv">
					<dim>1</dim>
					<dim>8</dim>
					<dim>160</dim>
					<dim>272</dim>
				</port>
			</output>
		</layer>
		<layer id="183" name="bottleneck1_3/dim_inc/conv/fq_input_0" type="FakeQuantize" version="opset1">
			<data levels="256" auto_broadcast="numpy"/>
			<input>
				<port id="0">
					<dim>1</dim>
					<dim>8</dim>
					<dim>160</dim>
					<dim>272</dim>
				</port>
				<port id="1"/>
				<port id="2"/>
				<port id="3"/>
				<port id="4"/>
			</input>
			<output>
				<port id="5" precision="FP32">
					<dim>1</dim>
					<dim>8</dim>
					<dim>160</dim>
					<dim>272</dim>
				</port>
			</output>
		</layer>
		<layer id="184" name="bottleneck1_3/dim_inc/conv/fq_weights_1/scale1637127449" type="Const" version="opset1">
			<data offset="3566" size="128" shape="32,1,1,1" element_type="f32"/>
			<output>
				<port id="0" precision="FP32">
					<dim>32</dim>
					<dim>1</dim>
					<dim>1</dim>
					<dim>1</dim>
				</port>
			</output>
		</layer>
		<layer id="185" name="bottleneck1_3/dim_inc/bn/mean/Fused_Mul__copy117313945/restored_convert/quantized1636328238" type="Const" version="opset1">
			<data offset="3694" size="256" shape="32,8,1,1" element_type="i8"/>
			<output>
				<port id="0" precision="I8">
					<dim>32</dim>
					<dim>8</dim>
					<dim>1</dim>
					<dim>1</dim>
				</port>
			</output>
		</layer>
		<layer id="186" name="bottleneck1_3/dim_inc/bn/mean/Fused_Mul__copy117313945/restored_convert/quantized/to_f32" type="Convert" version="opset1">
			<data destination_type="f32"/>
			<input>
				<port id="0">
					<dim>32</dim>
					<dim>8</dim>
					<dim>1</dim>
					<dim>1</dim>
				</port>
			</input>
			<output>
				<port id="1" precision="FP32">
					<dim>32</dim>
					<dim>8</dim>
					<dim>1</dim>
					<dim>1</dim>
				</port>
			</output>
		</layer>
		<layer id="187" name="bottleneck1_3/dim_inc/conv/fq_weights_1/mulpiply_by_scale" type="Multiply" version="opset1">
			<data auto_broadcast="numpy"/>
			<input>
				<port id="0">
					<dim>32</dim>
					<dim>8</dim>
					<dim>1</dim>
					<dim>1</dim>
				</port>
				<port id="1">
					<dim>32</dim>
					<dim>1</dim>
					<dim>1</dim>
					<dim>1</dim>
				</port>
			</input>
			<output>
				<port id="2" precision="FP32">
					<dim>32</dim>
					<dim>8</dim>
					<dim>1</dim>
					<dim>1</dim>
				</port>
			</output>
		</layer>
		<layer id="188" name="bottleneck1_3/dim_inc/conv" type="Convolution" version="opset1">
			<data auto_pad="explicit" strides="1,1" dilations="1,1" pads_begin="0,0" pads_end="0,0"/>
			<input>
				<port id="0">
					<dim>1</dim>
					<dim>8</dim>
					<dim>160</dim>
					<dim>272</dim>
				</port>
				<port id="1">
					<dim>32</dim>
					<dim>8</dim>
					<dim>1</dim>
					<dim>1</dim>
				</port>
			</input>
			<output>
				<port id="2" precision="FP32">
					<dim>1</dim>
					<dim>32</dim>
					<dim>160</dim>
					<dim>272</dim>
				</port>
			</output>
		</layer>
		<layer id="189" name="data_add_2452124526117628553" type="Const" version="opset1">
			<data offset="3950" size="64" shape="1,32,1,1" element_type="f16"/>
			<output>
				<port id="0" precision="FP16">
					<dim>1</dim>
					<dim>32</dim>
					<dim>1</dim>
					<dim>1</dim>
				</port>
			</output>
		</layer>
		<layer id="190" name="data_add_2452124526117613946/restored_convert" type="Convert" version="opset1">
			<data destination_type="f32"/>
			<rt_info>
				<attribute name="decompression" version="0"/>
			</rt_info>
			<input>
				<port id="0">
					<dim>1</dim>
					<dim>32</dim>
					<dim>1</dim>
					<dim>1</dim>
				</port>
			</input>
			<output>
				<port id="1" precision="FP32">
					<dim>1</dim>
					<dim>32</dim>
					<dim>1</dim>
					<dim>1</dim>
				</port>
			</output>
		</layer>
		<layer id="191" name="bottleneck1_3/dim_inc/bn/variance/Fused_Add_" type="Add" version="opset1">
			<data auto_broadcast="numpy"/>
			<input>
				<port id="0">
					<dim>1</dim>
					<dim>32</dim>
					<dim>160</dim>
					<dim>272</dim>
				</port>
				<port id="1">
					<dim>1</dim>
					<dim>32</dim>
					<dim>1</dim>
					<dim>1</dim>
				</port>
			</input>
			<output>
				<port id="2" precision="FP32" names="bottleneck1_3/dim_inc/conv">
					<dim>1</dim>
					<dim>32</dim>
					<dim>160</dim>
					<dim>272</dim>
				</port>
			</output>
		</layer>
		<layer id="192" name="bottleneck1_3/add/fq_input_1" type="FakeQuantize" version="opset1">
			<data levels="256" auto_broadcast="numpy"/>
			<input>
				<port id="0">
					<dim>1</dim>
					<dim>32</dim>
					<dim>160</dim>
					<dim>272</dim>
				</port>
				<port id="1"/>
				<port id="2"/>
				<port id="3"/>
				<port id="4"/>
			</input>
			<output>
				<port id="5" precision="FP32">
					<dim>1</dim>
					<dim>32</dim>
					<dim>160</dim>
					<dim>272</dim>
				</port>
			</output>
		</layer>
		<layer id="193" name="bottleneck1_3/add" type="Add" version="opset1">
			<data auto_broadcast="numpy"/>
			<input>
				<port id="0">
					<dim>1</dim>
					<dim>32</dim>
					<dim>160</dim>
					<dim>272</dim>
				</port>
				<port id="1">
					<dim>1</dim>
					<dim>32</dim>
					<dim>160</dim>
					<dim>272</dim>
				</port>
			</input>
			<output>
				<port id="2" precision="FP32" names="bottleneck1_3/add">
					<dim>1</dim>
					<dim>32</dim>
					<dim>160</dim>
					<dim>272</dim>
				</port>
			</output>
		</layer>
		<layer id="194" name="bottleneck1_3/fn/weights3110840700118027539" type="Const" version="opset1">
			<data offset="1500" size="2" shape="1" element_type="f16"/>
			<output>
				<port id="0" precision="FP16">
					<dim>1</dim>
				</port>
			</output>
		</layer>
		<layer id="195" name="bottleneck1_3/fn/weights3110840700118013947/restored_convert" type="Convert" version="opset1">
			<data destination_type="f32"/>
			<rt_info>
				<attribute name="decompression" version="0"/>
			</rt_info>
			<input>
				<port id="0">
					<dim>1</dim>
				</port>
			</input>
			<output>
				<port id="1" precision="FP32">
					<dim>1</dim>
				</port>
			</output>
		</layer>
		<layer id="196" name="bottleneck1_3/fn" type="PReLU" version="opset1">
			<input>
				<port id="0">
					<dim>1</dim>
					<dim>32</dim>
					<dim>160</dim>
					<dim>272</dim>
				</port>
				<port id="1">
					<dim>1</dim>
				</port>
			</input>
			<output>
				<port id="2" precision="FP32" names="bottleneck1_3/add">
					<dim>1</dim>
					<dim>32</dim>
					<dim>160</dim>
					<dim>272</dim>
				</port>
			</output>
		</layer>
		<layer id="197" name="bottleneck1_4/add/fq_input_0" type="FakeQuantize" version="opset1">
			<data levels="256" auto_broadcast="numpy"/>
			<input>
				<port id="0">
					<dim>1</dim>
					<dim>32</dim>
					<dim>160</dim>
					<dim>272</dim>
				</port>
				<port id="1"/>
				<port id="2"/>
				<port id="3"/>
				<port id="4"/>
			</input>
			<output>
				<port id="5" precision="FP32">
					<dim>1</dim>
					<dim>32</dim>
					<dim>160</dim>
					<dim>272</dim>
				</port>
			</output>
		</layer>
		<layer id="198" name="6467647127971" type="Const" version="opset1">
			<data offset="4014" size="4" shape="" element_type="f32"/>
			<output>
				<port id="0" precision="FP32"/>
			</output>
		</layer>
		<layer id="199" name="6468647226999" type="Const" version="opset1">
			<data offset="4018" size="4" shape="" element_type="f32"/>
			<output>
				<port id="0" precision="FP32"/>
			</output>
		</layer>
		<layer id="200" name="6469647328892" type="Const" version="opset1">
			<data offset="4014" size="4" shape="" element_type="f32"/>
			<output>
				<port id="0" precision="FP32"/>
			</output>
		</layer>
		<layer id="201" name="6470647427488" type="Const" version="opset1">
			<data offset="4018" size="4" shape="" element_type="f32"/>
			<output>
				<port id="0" precision="FP32"/>
			</output>
		</layer>
		<layer id="202" name="5877588127452" type="Const" version="opset1">
			<data offset="4022" size="4" shape="" element_type="f32"/>
			<output>
				<port id="0" precision="FP32"/>
			</output>
		</layer>
		<layer id="203" name="5878588227218" type="Const" version="opset1">
			<data offset="4026" size="4" shape="" element_type="f32"/>
			<output>
				<port id="0" precision="FP32"/>
			</output>
		</layer>
		<layer id="204" name="5879588325889" type="Const" version="opset1">
			<data offset="4022" size="4" shape="" element_type="f32"/>
			<output>
				<port id="0" precision="FP32"/>
			</output>
		</layer>
		<layer id="205" name="5880588427164" type="Const" version="opset1">
			<data offset="4026" size="4" shape="" element_type="f32"/>
			<output>
				<port id="0" precision="FP32"/>
			</output>
		</layer>
		<layer id="206" name="4017402127719" type="Const" version="opset1">
			<data offset="4030" size="32" shape="1,8,1,1" element_type="f32"/>
			<output>
				<port id="0" precision="FP32">
					<dim>1</dim>
					<dim>8</dim>
					<dim>1</dim>
					<dim>1</dim>
				</port>
			</output>
		</layer>
		<layer id="207" name="4018402226411" type="Const" version="opset1">
			<data offset="4062" size="32" shape="1,8,1,1" element_type="f32"/>
			<output>
				<port id="0" precision="FP32">
					<dim>1</dim>
					<dim>8</dim>
					<dim>1</dim>
					<dim>1</dim>
				</port>
			</output>
		</layer>
		<layer id="208" name="4019402328982" type="Const" version="opset1">
			<data offset="4030" size="32" shape="1,8,1,1" element_type="f32"/>
			<output>
				<port id="0" precision="FP32">
					<dim>1</dim>
					<dim>8</dim>
					<dim>1</dim>
					<dim>1</dim>
				</port>
			</output>
		</layer>
		<layer id="209" name="4020402426930" type="Const" version="opset1">
			<data offset="4062" size="32" shape="1,8,1,1" element_type="f32"/>
			<output>
				<port id="0" precision="FP32">
					<dim>1</dim>
					<dim>8</dim>
					<dim>1</dim>
					<dim>1</dim>
				</port>
			</output>
		</layer>
		<layer id="210" name="bottleneck1_4/dim_red/conv/fq_weights_1/scale1910128916" type="Const" version="opset1">
			<data offset="4094" size="32" shape="8,1,1,1" element_type="f32"/>
			<output>
				<port id="0" precision="FP32">
					<dim>8</dim>
					<dim>1</dim>
					<dim>1</dim>
					<dim>1</dim>
				</port>
			</output>
		</layer>
		<layer id="211" name="bottleneck1_4/dim_red/bn/mean/Fused_Mul__copy118313948/restored_convert/quantized1909326345" type="Const" version="opset1">
			<data offset="4126" size="256" shape="8,32,1,1" element_type="i8"/>
			<output>
				<port id="0" precision="I8">
					<dim>8</dim>
					<dim>32</dim>
					<dim>1</dim>
					<dim>1</dim>
				</port>
			</output>
		</layer>
		<layer id="212" name="bottleneck1_4/dim_red/bn/mean/Fused_Mul__copy118313948/restored_convert/quantized/to_f32" type="Convert" version="opset1">
			<data destination_type="f32"/>
			<input>
				<port id="0">
					<dim>8</dim>
					<dim>32</dim>
					<dim>1</dim>
					<dim>1</dim>
				</port>
			</input>
			<output>
				<port id="1" precision="FP32">
					<dim>8</dim>
					<dim>32</dim>
					<dim>1</dim>
					<dim>1</dim>
				</port>
			</output>
		</layer>
		<layer id="213" name="bottleneck1_4/dim_red/conv/fq_weights_1/mulpiply_by_scale" type="Multiply" version="opset1">
			<data auto_broadcast="numpy"/>
			<input>
				<port id="0">
					<dim>8</dim>
					<dim>32</dim>
					<dim>1</dim>
					<dim>1</dim>
				</port>
				<port id="1">
					<dim>8</dim>
					<dim>1</dim>
					<dim>1</dim>
					<dim>1</dim>
				</port>
			</input>
			<output>
				<port id="2" precision="FP32">
					<dim>8</dim>
					<dim>32</dim>
					<dim>1</dim>
					<dim>1</dim>
				</port>
			</output>
		</layer>
		<layer id="214" name="bottleneck1_4/dim_red/conv" type="Convolution" version="opset1">
			<data auto_pad="explicit" strides="1,1" dilations="1,1" pads_begin="0,0" pads_end="0,0"/>
			<input>
				<port id="0">
					<dim>1</dim>
					<dim>32</dim>
					<dim>160</dim>
					<dim>272</dim>
				</port>
				<port id="1">
					<dim>8</dim>
					<dim>32</dim>
					<dim>1</dim>
					<dim>1</dim>
				</port>
			</input>
			<output>
				<port id="2" precision="FP32">
					<dim>1</dim>
					<dim>8</dim>
					<dim>160</dim>
					<dim>272</dim>
				</port>
			</output>
		</layer>
		<layer id="215" name="data_add_2452924534118628934" type="Const" version="opset1">
			<data offset="4382" size="16" shape="1,8,1,1" element_type="f16"/>
			<output>
				<port id="0" precision="FP16">
					<dim>1</dim>
					<dim>8</dim>
					<dim>1</dim>
					<dim>1</dim>
				</port>
			</output>
		</layer>
		<layer id="216" name="data_add_2452924534118613949/restored_convert" type="Convert" version="opset1">
			<data destination_type="f32"/>
			<rt_info>
				<attribute name="decompression" version="0"/>
			</rt_info>
			<input>
				<port id="0">
					<dim>1</dim>
					<dim>8</dim>
					<dim>1</dim>
					<dim>1</dim>
				</port>
			</input>
			<output>
				<port id="1" precision="FP32">
					<dim>1</dim>
					<dim>8</dim>
					<dim>1</dim>
					<dim>1</dim>
				</port>
			</output>
		</layer>
		<layer id="217" name="bottleneck1_4/dim_red/bn/variance/Fused_Add_" type="Add" version="opset1">
			<data auto_broadcast="numpy"/>
			<input>
				<port id="0">
					<dim>1</dim>
					<dim>8</dim>
					<dim>160</dim>
					<dim>272</dim>
				</port>
				<port id="1">
					<dim>1</dim>
					<dim>8</dim>
					<dim>1</dim>
					<dim>1</dim>
				</port>
			</input>
			<output>
				<port id="2" precision="FP32" names="bottleneck1_4/dim_red/conv">
					<dim>1</dim>
					<dim>8</dim>
					<dim>160</dim>
					<dim>272</dim>
				</port>
			</output>
		</layer>
		<layer id="218" name="bottleneck1_4/dim_red/fn/weights3114440538118926063" type="Const" version="opset1">
			<data offset="1500" size="2" shape="1" element_type="f16"/>
			<output>
				<port id="0" precision="FP16">
					<dim>1</dim>
				</port>
			</output>
		</layer>
		<layer id="219" name="bottleneck1_4/dim_red/fn/weights3114440538118913950/restored_convert" type="Convert" version="opset1">
			<data destination_type="f32"/>
			<rt_info>
				<attribute name="decompression" version="0"/>
			</rt_info>
			<input>
				<port id="0">
					<dim>1</dim>
				</port>
			</input>
			<output>
				<port id="1" precision="FP32">
					<dim>1</dim>
				</port>
			</output>
		</layer>
		<layer id="220" name="bottleneck1_4/dim_red/fn" type="PReLU" version="opset1">
			<input>
				<port id="0">
					<dim>1</dim>
					<dim>8</dim>
					<dim>160</dim>
					<dim>272</dim>
				</port>
				<port id="1">
					<dim>1</dim>
				</port>
			</input>
			<output>
				<port id="2" precision="FP32" names="bottleneck1_4/dim_red/conv">
					<dim>1</dim>
					<dim>8</dim>
					<dim>160</dim>
					<dim>272</dim>
				</port>
			</output>
		</layer>
		<layer id="221" name="bottleneck1_4/inner/dw1/conv/fq_input_0" type="FakeQuantize" version="opset1">
			<data levels="256" auto_broadcast="numpy"/>
			<input>
				<port id="0">
					<dim>1</dim>
					<dim>8</dim>
					<dim>160</dim>
					<dim>272</dim>
				</port>
				<port id="1">
					<dim>1</dim>
					<dim>8</dim>
					<dim>1</dim>
					<dim>1</dim>
				</port>
				<port id="2">
					<dim>1</dim>
					<dim>8</dim>
					<dim>1</dim>
					<dim>1</dim>
				</port>
				<port id="3">
					<dim>1</dim>
					<dim>8</dim>
					<dim>1</dim>
					<dim>1</dim>
				</port>
				<port id="4">
					<dim>1</dim>
					<dim>8</dim>
					<dim>1</dim>
					<dim>1</dim>
				</port>
			</input>
			<output>
				<port id="5" precision="FP32">
					<dim>1</dim>
					<dim>8</dim>
					<dim>160</dim>
					<dim>272</dim>
				</port>
			</output>
		</layer>
		<layer id="222" name="bottleneck1_4/inner/dw1/conv/weights_shape2299928616" type="Const" version="opset1">
			<data offset="1502" size="40" shape="5" element_type="i64"/>
			<output>
				<port id="0" precision="I64">
					<dim>5</dim>
				</port>
			</output>
		</layer>
		<layer id="223" name="bottleneck1_4/inner/dw1/conv/fq_weights_1/scale1730126576" type="Const" version="opset1">
			<data offset="4398" size="32" shape="8,1,1,1" element_type="f32"/>
			<output>
				<port id="0" precision="FP32">
					<dim>8</dim>
					<dim>1</dim>
					<dim>1</dim>
					<dim>1</dim>
				</port>
			</output>
		</layer>
		<layer id="224" name="bottleneck1_4/inner/dw1/bn/mean/Fused_Mul__copy119213951/restored_convert/quantized1729326984" type="Const" version="opset1">
			<data offset="4430" size="72" shape="8,1,3,3" element_type="i8"/>
			<output>
				<port id="0" precision="I8">
					<dim>8</dim>
					<dim>1</dim>
					<dim>3</dim>
					<dim>3</dim>
				</port>
			</output>
		</layer>
		<layer id="225" name="bottleneck1_4/inner/dw1/bn/mean/Fused_Mul__copy119213951/restored_convert/quantized/to_f32" type="Convert" version="opset1">
			<data destination_type="f32"/>
			<input>
				<port id="0">
					<dim>8</dim>
					<dim>1</dim>
					<dim>3</dim>
					<dim>3</dim>
				</port>
			</input>
			<output>
				<port id="1" precision="FP32">
					<dim>8</dim>
					<dim>1</dim>
					<dim>3</dim>
					<dim>3</dim>
				</port>
			</output>
		</layer>
		<layer id="226" name="bottleneck1_4/inner/dw1/conv/fq_weights_1/mulpiply_by_scale" type="Multiply" version="opset1">
			<data auto_broadcast="numpy"/>
			<input>
				<port id="0">
					<dim>8</dim>
					<dim>1</dim>
					<dim>3</dim>
					<dim>3</dim>
				</port>
				<port id="1">
					<dim>8</dim>
					<dim>1</dim>
					<dim>1</dim>
					<dim>1</dim>
				</port>
			</input>
			<output>
				<port id="2" precision="FP32">
					<dim>8</dim>
					<dim>1</dim>
					<dim>3</dim>
					<dim>3</dim>
				</port>
			</output>
		</layer>
		<layer id="227" name="22998" type="Reshape" version="opset1">
			<data special_zero="true"/>
			<input>
				<port id="0">
					<dim>8</dim>
					<dim>1</dim>
					<dim>3</dim>
					<dim>3</dim>
				</port>
				<port id="1">
					<dim>5</dim>
				</port>
			</input>
			<output>
				<port id="2" precision="FP32">
					<dim>8</dim>
					<dim>1</dim>
					<dim>1</dim>
					<dim>3</dim>
					<dim>3</dim>
				</port>
			</output>
		</layer>
		<layer id="228" name="bottleneck1_4/inner/dw1/conv" type="GroupConvolution" version="opset1">
			<data auto_pad="explicit" strides="1,1" dilations="1,1" pads_begin="1,1" pads_end="1,1"/>
			<input>
				<port id="0">
					<dim>1</dim>
					<dim>8</dim>
					<dim>160</dim>
					<dim>272</dim>
				</port>
				<port id="1">
					<dim>8</dim>
					<dim>1</dim>
					<dim>1</dim>
					<dim>3</dim>
					<dim>3</dim>
				</port>
			</input>
			<output>
				<port id="2" precision="FP32">
					<dim>1</dim>
					<dim>8</dim>
					<dim>160</dim>
					<dim>272</dim>
				</port>
			</output>
		</layer>
		<layer id="229" name="data_add_2453724542119528079" type="Const" version="opset1">
			<data offset="4502" size="16" shape="1,8,1,1" element_type="f16"/>
			<output>
				<port id="0" precision="FP16">
					<dim>1</dim>
					<dim>8</dim>
					<dim>1</dim>
					<dim>1</dim>
				</port>
			</output>
		</layer>
		<layer id="230" name="data_add_2453724542119513952/restored_convert" type="Convert" version="opset1">
			<data destination_type="f32"/>
			<rt_info>
				<attribute name="decompression" version="0"/>
			</rt_info>
			<input>
				<port id="0">
					<dim>1</dim>
					<dim>8</dim>
					<dim>1</dim>
					<dim>1</dim>
				</port>
			</input>
			<output>
				<port id="1" precision="FP32">
					<dim>1</dim>
					<dim>8</dim>
					<dim>1</dim>
					<dim>1</dim>
				</port>
			</output>
		</layer>
		<layer id="231" name="bottleneck1_4/inner/dw1/bn/variance/Fused_Add_" type="Add" version="opset1">
			<data auto_broadcast="numpy"/>
			<input>
				<port id="0">
					<dim>1</dim>
					<dim>8</dim>
					<dim>160</dim>
					<dim>272</dim>
				</port>
				<port id="1">
					<dim>1</dim>
					<dim>8</dim>
					<dim>1</dim>
					<dim>1</dim>
				</port>
			</input>
			<output>
				<port id="2" precision="FP32" names="bottleneck1_4/inner/dw1/conv">
					<dim>1</dim>
					<dim>8</dim>
					<dim>160</dim>
					<dim>272</dim>
				</port>
			</output>
		</layer>
		<layer id="232" name="bottleneck1_4/inner/dw1/fn/weights3100840271119828670" type="Const" version="opset1">
			<data offset="1500" size="2" shape="1" element_type="f16"/>
			<output>
				<port id="0" precision="FP16">
					<dim>1</dim>
				</port>
			</output>
		</layer>
		<layer id="233" name="bottleneck1_4/inner/dw1/fn/weights3100840271119813953/restored_convert" type="Convert" version="opset1">
			<data destination_type="f32"/>
			<rt_info>
				<attribute name="decompression" version="0"/>
			</rt_info>
			<input>
				<port id="0">
					<dim>1</dim>
				</port>
			</input>
			<output>
				<port id="1" precision="FP32">
					<dim>1</dim>
				</port>
			</output>
		</layer>
		<layer id="234" name="bottleneck1_4/inner/dw1/fn" type="PReLU" version="opset1">
			<input>
				<port id="0">
					<dim>1</dim>
					<dim>8</dim>
					<dim>160</dim>
					<dim>272</dim>
				</port>
				<port id="1">
					<dim>1</dim>
				</port>
			</input>
			<output>
				<port id="2" precision="FP32" names="bottleneck1_4/inner/dw1/conv">
					<dim>1</dim>
					<dim>8</dim>
					<dim>160</dim>
					<dim>272</dim>
				</port>
			</output>
		</layer>
		<layer id="235" name="bottleneck1_4/dim_inc/conv/fq_input_0" type="FakeQuantize" version="opset1">
			<data levels="256" auto_broadcast="numpy"/>
			<input>
				<port id="0">
					<dim>1</dim>
					<dim>8</dim>
					<dim>160</dim>
					<dim>272</dim>
				</port>
				<port id="1"/>
				<port id="2"/>
				<port id="3"/>
				<port id="4"/>
			</input>
			<output>
				<port id="5" precision="FP32">
					<dim>1</dim>
					<dim>8</dim>
					<dim>160</dim>
					<dim>272</dim>
				</port>
			</output>
		</layer>
		<layer id="236" name="bottleneck1_4/dim_inc/conv/fq_weights_1/scale1634126723" type="Const" version="opset1">
			<data offset="4518" size="128" shape="32,1,1,1" element_type="f32"/>
			<output>
				<port id="0" precision="FP32">
					<dim>32</dim>
					<dim>1</dim>
					<dim>1</dim>
					<dim>1</dim>
				</port>
			</output>
		</layer>
		<layer id="237" name="bottleneck1_4/dim_inc/bn/mean/Fused_Mul__copy120113954/restored_convert/quantized1633326075" type="Const" version="opset1">
			<data offset="4646" size="256" shape="32,8,1,1" element_type="i8"/>
			<output>
				<port id="0" precision="I8">
					<dim>32</dim>
					<dim>8</dim>
					<dim>1</dim>
					<dim>1</dim>
				</port>
			</output>
		</layer>
		<layer id="238" name="bottleneck1_4/dim_inc/bn/mean/Fused_Mul__copy120113954/restored_convert/quantized/to_f32" type="Convert" version="opset1">
			<data destination_type="f32"/>
			<input>
				<port id="0">
					<dim>32</dim>
					<dim>8</dim>
					<dim>1</dim>
					<dim>1</dim>
				</port>
			</input>
			<output>
				<port id="1" precision="FP32">
					<dim>32</dim>
					<dim>8</dim>
					<dim>1</dim>
					<dim>1</dim>
				</port>
			</output>
		</layer>
		<layer id="239" name="bottleneck1_4/dim_inc/conv/fq_weights_1/mulpiply_by_scale" type="Multiply" version="opset1">
			<data auto_broadcast="numpy"/>
			<input>
				<port id="0">
					<dim>32</dim>
					<dim>8</dim>
					<dim>1</dim>
					<dim>1</dim>
				</port>
				<port id="1">
					<dim>32</dim>
					<dim>1</dim>
					<dim>1</dim>
					<dim>1</dim>
				</port>
			</input>
			<output>
				<port id="2" precision="FP32">
					<dim>32</dim>
					<dim>8</dim>
					<dim>1</dim>
					<dim>1</dim>
				</port>
			</output>
		</layer>
		<layer id="240" name="bottleneck1_4/dim_inc/conv" type="Convolution" version="opset1">
			<data auto_pad="explicit" strides="1,1" dilations="1,1" pads_begin="0,0" pads_end="0,0"/>
			<input>
				<port id="0">
					<dim>1</dim>
					<dim>8</dim>
					<dim>160</dim>
					<dim>272</dim>
				</port>
				<port id="1">
					<dim>32</dim>
					<dim>8</dim>
					<dim>1</dim>
					<dim>1</dim>
				</port>
			</input>
			<output>
				<port id="2" precision="FP32">
					<dim>1</dim>
					<dim>32</dim>
					<dim>160</dim>
					<dim>272</dim>
				</port>
			</output>
		</layer>
		<layer id="241" name="data_add_2454524550120427104" type="Const" version="opset1">
			<data offset="4902" size="64" shape="1,32,1,1" element_type="f16"/>
			<output>
				<port id="0" precision="FP16">
					<dim>1</dim>
					<dim>32</dim>
					<dim>1</dim>
					<dim>1</dim>
				</port>
			</output>
		</layer>
		<layer id="242" name="data_add_2454524550120413955/restored_convert" type="Convert" version="opset1">
			<data destination_type="f32"/>
			<rt_info>
				<attribute name="decompression" version="0"/>
			</rt_info>
			<input>
				<port id="0">
					<dim>1</dim>
					<dim>32</dim>
					<dim>1</dim>
					<dim>1</dim>
				</port>
			</input>
			<output>
				<port id="1" precision="FP32">
					<dim>1</dim>
					<dim>32</dim>
					<dim>1</dim>
					<dim>1</dim>
				</port>
			</output>
		</layer>
		<layer id="243" name="bottleneck1_4/dim_inc/bn/variance/Fused_Add_" type="Add" version="opset1">
			<data auto_broadcast="numpy"/>
			<input>
				<port id="0">
					<dim>1</dim>
					<dim>32</dim>
					<dim>160</dim>
					<dim>272</dim>
				</port>
				<port id="1">
					<dim>1</dim>
					<dim>32</dim>
					<dim>1</dim>
					<dim>1</dim>
				</port>
			</input>
			<output>
				<port id="2" precision="FP32" names="bottleneck1_4/dim_inc/conv">
					<dim>1</dim>
					<dim>32</dim>
					<dim>160</dim>
					<dim>272</dim>
				</port>
			</output>
		</layer>
		<layer id="244" name="bottleneck1_4/add/fq_input_1" type="FakeQuantize" version="opset1">
			<data levels="256" auto_broadcast="numpy"/>
			<input>
				<port id="0">
					<dim>1</dim>
					<dim>32</dim>
					<dim>160</dim>
					<dim>272</dim>
				</port>
				<port id="1"/>
				<port id="2"/>
				<port id="3"/>
				<port id="4"/>
			</input>
			<output>
				<port id="5" precision="FP32">
					<dim>1</dim>
					<dim>32</dim>
					<dim>160</dim>
					<dim>272</dim>
				</port>
			</output>
		</layer>
		<layer id="245" name="bottleneck1_4/add" type="Add" version="opset1">
			<data auto_broadcast="numpy"/>
			<input>
				<port id="0">
					<dim>1</dim>
					<dim>32</dim>
					<dim>160</dim>
					<dim>272</dim>
				</port>
				<port id="1">
					<dim>1</dim>
					<dim>32</dim>
					<dim>160</dim>
					<dim>272</dim>
				</port>
			</input>
			<output>
				<port id="2" precision="FP32" names="bottleneck1_4/add">
					<dim>1</dim>
					<dim>32</dim>
					<dim>160</dim>
					<dim>272</dim>
				</port>
			</output>
		</layer>
		<layer id="246" name="bottleneck1_4/fn/weights3086040622120828868" type="Const" version="opset1">
			<data offset="1500" size="2" shape="1" element_type="f16"/>
			<output>
				<port id="0" precision="FP16">
					<dim>1</dim>
				</port>
			</output>
		</layer>
		<layer id="247" name="bottleneck1_4/fn/weights3086040622120813956/restored_convert" type="Convert" version="opset1">
			<data destination_type="f32"/>
			<rt_info>
				<attribute name="decompression" version="0"/>
			</rt_info>
			<input>
				<port id="0">
					<dim>1</dim>
				</port>
			</input>
			<output>
				<port id="1" precision="FP32">
					<dim>1</dim>
				</port>
			</output>
		</layer>
		<layer id="248" name="bottleneck1_4/fn" type="PReLU" version="opset1">
			<input>
				<port id="0">
					<dim>1</dim>
					<dim>32</dim>
					<dim>160</dim>
					<dim>272</dim>
				</port>
				<port id="1">
					<dim>1</dim>
				</port>
			</input>
			<output>
				<port id="2" precision="FP32" names="bottleneck1_4/add">
					<dim>1</dim>
					<dim>32</dim>
					<dim>160</dim>
					<dim>272</dim>
				</port>
			</output>
		</layer>
		<layer id="249" name="bottleneck2_0/dim_red/conv/fq_input_0" type="FakeQuantize" version="opset1">
			<data levels="256" auto_broadcast="numpy"/>
			<input>
				<port id="0">
					<dim>1</dim>
					<dim>32</dim>
					<dim>160</dim>
					<dim>272</dim>
				</port>
				<port id="1"/>
				<port id="2"/>
				<port id="3"/>
				<port id="4"/>
			</input>
			<output>
				<port id="5" precision="FP32">
					<dim>1</dim>
					<dim>32</dim>
					<dim>160</dim>
					<dim>272</dim>
				</port>
			</output>
		</layer>
		<layer id="250" name="bottleneck2_0/skip/pooling" type="MaxPool" version="opset8">
			<data strides="2,2" kernel="2,2" pads_begin="0,0" pads_end="0,0" rounding_type="ceil" auto_pad="explicit" dilations="1,1" axis="0" index_element_type="i64"/>
			<input>
				<port id="0">
					<dim>1</dim>
					<dim>32</dim>
					<dim>160</dim>
					<dim>272</dim>
				</port>
			</input>
			<output>
				<port id="1" precision="FP32" names="bottleneck2_0/skip/pooling">
					<dim>1</dim>
					<dim>32</dim>
					<dim>80</dim>
					<dim>136</dim>
				</port>
				<port id="2" precision="FP32">
					<dim>1</dim>
					<dim>32</dim>
					<dim>80</dim>
					<dim>136</dim>
					<rt_info/>
				</port>
			</output>
		</layer>
		<layer id="252" name="6077608128058" type="Const" version="opset1">
			<data offset="4966" size="4" shape="" element_type="f32"/>
			<output>
				<port id="0" precision="FP32"/>
			</output>
		</layer>
		<layer id="253" name="6078608226084" type="Const" version="opset1">
			<data offset="4970" size="4" shape="" element_type="f32"/>
			<output>
				<port id="0" precision="FP32"/>
			</output>
		</layer>
		<layer id="254" name="6079608328412" type="Const" version="opset1">
			<data offset="4966" size="4" shape="" element_type="f32"/>
			<output>
				<port id="0" precision="FP32"/>
			</output>
		</layer>
		<layer id="255" name="6080608428907" type="Const" version="opset1">
			<data offset="4970" size="4" shape="" element_type="f32"/>
			<output>
				<port id="0" precision="FP32"/>
			</output>
		</layer>
		<layer id="256" name="3857386125877" type="Const" version="opset1">
			<data offset="4974" size="4" shape="" element_type="f32"/>
			<output>
				<port id="0" precision="FP32"/>
			</output>
		</layer>
		<layer id="257" name="3858386226696" type="Const" version="opset1">
			<data offset="4978" size="4" shape="" element_type="f32"/>
			<output>
				<port id="0" precision="FP32"/>
			</output>
		</layer>
		<layer id="258" name="3859386325991" type="Const" version="opset1">
			<data offset="4974" size="4" shape="" element_type="f32"/>
			<output>
				<port id="0" precision="FP32"/>
			</output>
		</layer>
		<layer id="259" name="3860386428925" type="Const" version="opset1">
			<data offset="4978" size="4" shape="" element_type="f32"/>
			<output>
				<port id="0" precision="FP32"/>
			</output>
		</layer>
		<layer id="260" name="6137614127977" type="Const" version="opset1">
			<data offset="4982" size="4" shape="" element_type="f32"/>
			<output>
				<port id="0" precision="FP32"/>
			</output>
		</layer>
		<layer id="261" name="6138614228469" type="Const" version="opset1">
			<data offset="4986" size="4" shape="" element_type="f32"/>
			<output>
				<port id="0" precision="FP32"/>
			</output>
		</layer>
		<layer id="262" name="6139614327788" type="Const" version="opset1">
			<data offset="4982" size="4" shape="" element_type="f32"/>
			<output>
				<port id="0" precision="FP32"/>
			</output>
		</layer>
		<layer id="263" name="6140614426504" type="Const" version="opset1">
			<data offset="4986" size="4" shape="" element_type="f32"/>
			<output>
				<port id="0" precision="FP32"/>
			</output>
		</layer>
		<layer id="264" name="3657366127914" type="Const" version="opset1">
			<data offset="4990" size="4" shape="" element_type="f32"/>
			<output>
				<port id="0" precision="FP32"/>
			</output>
		</layer>
		<layer id="265" name="3658366228466" type="Const" version="opset1">
			<data offset="4994" size="4" shape="" element_type="f32"/>
			<output>
				<port id="0" precision="FP32"/>
			</output>
		</layer>
		<layer id="266" name="3659366325859" type="Const" version="opset1">
			<data offset="4990" size="4" shape="" element_type="f32"/>
			<output>
				<port id="0" precision="FP32"/>
			</output>
		</layer>
		<layer id="267" name="3660366427599" type="Const" version="opset1">
			<data offset="4994" size="4" shape="" element_type="f32"/>
			<output>
				<port id="0" precision="FP32"/>
			</output>
		</layer>
		<layer id="268" name="5937594128391" type="Const" version="opset1">
			<data offset="4998" size="4" shape="" element_type="f32"/>
			<output>
				<port id="0" precision="FP32"/>
			</output>
		</layer>
		<layer id="269" name="5938594227680" type="Const" version="opset1">
			<data offset="5002" size="4" shape="" element_type="f32"/>
			<output>
				<port id="0" precision="FP32"/>
			</output>
		</layer>
		<layer id="270" name="5939594327527" type="Const" version="opset1">
			<data offset="4998" size="4" shape="" element_type="f32"/>
			<output>
				<port id="0" precision="FP32"/>
			</output>
		</layer>
		<layer id="271" name="5940594428961" type="Const" version="opset1">
			<data offset="5002" size="4" shape="" element_type="f32"/>
			<output>
				<port id="0" precision="FP32"/>
			</output>
		</layer>
		<layer id="272" name="6017602128187" type="Const" version="opset1">
			<data offset="5006" size="4" shape="" element_type="f32"/>
			<output>
				<port id="0" precision="FP32"/>
			</output>
		</layer>
		<layer id="273" name="6018602228364" type="Const" version="opset1">
			<data offset="5010" size="4" shape="" element_type="f32"/>
			<output>
				<port id="0" precision="FP32"/>
			</output>
		</layer>
		<layer id="274" name="6019602326300" type="Const" version="opset1">
			<data offset="5006" size="4" shape="" element_type="f32"/>
			<output>
				<port id="0" precision="FP32"/>
			</output>
		</layer>
		<layer id="275" name="6020602428535" type="Const" version="opset1">
			<data offset="5010" size="4" shape="" element_type="f32"/>
			<output>
				<port id="0" precision="FP32"/>
			</output>
		</layer>
		<layer id="276" name="5297530128751" type="Const" version="opset1">
			<data offset="5014" size="4" shape="" element_type="f32"/>
			<output>
				<port id="0" precision="FP32"/>
			</output>
		</layer>
		<layer id="277" name="5298530226501" type="Const" version="opset1">
			<data offset="5018" size="4" shape="" element_type="f32"/>
			<output>
				<port id="0" precision="FP32"/>
			</output>
		</layer>
		<layer id="278" name="5299530328805" type="Const" version="opset1">
			<data offset="5014" size="4" shape="" element_type="f32"/>
			<output>
				<port id="0" precision="FP32"/>
			</output>
		</layer>
		<layer id="279" name="5300530426489" type="Const" version="opset1">
			<data offset="5018" size="4" shape="" element_type="f32"/>
			<output>
				<port id="0" precision="FP32"/>
			</output>
		</layer>
		<layer id="280" name="3977398125931" type="Const" version="opset1">
			<data offset="5022" size="4" shape="" element_type="f32"/>
			<output>
				<port id="0" precision="FP32"/>
			</output>
		</layer>
		<layer id="281" name="3978398227395" type="Const" version="opset1">
			<data offset="5026" size="4" shape="" element_type="f32"/>
			<output>
				<port id="0" precision="FP32"/>
			</output>
		</layer>
		<layer id="282" name="3979398328559" type="Const" version="opset1">
			<data offset="5022" size="4" shape="" element_type="f32"/>
			<output>
				<port id="0" precision="FP32"/>
			</output>
		</layer>
		<layer id="283" name="3980398428592" type="Const" version="opset1">
			<data offset="5026" size="4" shape="" element_type="f32"/>
			<output>
				<port id="0" precision="FP32"/>
			</output>
		</layer>
		<layer id="284" name="4237424126123" type="Const" version="opset1">
			<data offset="5030" size="4" shape="" element_type="f32"/>
			<output>
				<port id="0" precision="FP32"/>
			</output>
		</layer>
		<layer id="285" name="4238424227056" type="Const" version="opset1">
			<data offset="5034" size="4" shape="" element_type="f32"/>
			<output>
				<port id="0" precision="FP32"/>
			</output>
		</layer>
		<layer id="286" name="4239424327935" type="Const" version="opset1">
			<data offset="5030" size="4" shape="" element_type="f32"/>
			<output>
				<port id="0" precision="FP32"/>
			</output>
		</layer>
		<layer id="287" name="4240424426327" type="Const" version="opset1">
			<data offset="5034" size="4" shape="" element_type="f32"/>
			<output>
				<port id="0" precision="FP32"/>
			</output>
		</layer>
		<layer id="288" name="4717472128517" type="Const" version="opset1">
			<data offset="5038" size="4" shape="" element_type="f32"/>
			<output>
				<port id="0" precision="FP32"/>
			</output>
		</layer>
		<layer id="289" name="4718472226666" type="Const" version="opset1">
			<data offset="5042" size="4" shape="" element_type="f32"/>
			<output>
				<port id="0" precision="FP32"/>
			</output>
		</layer>
		<layer id="290" name="4719472326141" type="Const" version="opset1">
			<data offset="5038" size="4" shape="" element_type="f32"/>
			<output>
				<port id="0" precision="FP32"/>
			</output>
		</layer>
		<layer id="291" name="4720472426876" type="Const" version="opset1">
			<data offset="5042" size="4" shape="" element_type="f32"/>
			<output>
				<port id="0" precision="FP32"/>
			</output>
		</layer>
		<layer id="292" name="bottleneck2_0/skip/conv/fq_weights_1/scale1913127569" type="Const" version="opset1">
			<data offset="5046" size="256" shape="64,1,1,1" element_type="f32"/>
			<output>
				<port id="0" precision="FP32">
					<dim>64</dim>
					<dim>1</dim>
					<dim>1</dim>
					<dim>1</dim>
				</port>
			</output>
		</layer>
		<layer id="293" name="bottleneck2_0/skip/bn/mean/Fused_Mul__copy121213957/restored_convert/quantized1912326318" type="Const" version="opset1">
			<data offset="5302" size="2048" shape="64,32,1,1" element_type="i8"/>
			<output>
				<port id="0" precision="I8">
					<dim>64</dim>
					<dim>32</dim>
					<dim>1</dim>
					<dim>1</dim>
				</port>
			</output>
		</layer>
		<layer id="294" name="bottleneck2_0/skip/bn/mean/Fused_Mul__copy121213957/restored_convert/quantized/to_f32" type="Convert" version="opset1">
			<data destination_type="f32"/>
			<input>
				<port id="0">
					<dim>64</dim>
					<dim>32</dim>
					<dim>1</dim>
					<dim>1</dim>
				</port>
			</input>
			<output>
				<port id="1" precision="FP32">
					<dim>64</dim>
					<dim>32</dim>
					<dim>1</dim>
					<dim>1</dim>
				</port>
			</output>
		</layer>
		<layer id="295" name="bottleneck2_0/skip/conv/fq_weights_1/mulpiply_by_scale" type="Multiply" version="opset1">
			<data auto_broadcast="numpy"/>
			<input>
				<port id="0">
					<dim>64</dim>
					<dim>32</dim>
					<dim>1</dim>
					<dim>1</dim>
				</port>
				<port id="1">
					<dim>64</dim>
					<dim>1</dim>
					<dim>1</dim>
					<dim>1</dim>
				</port>
			</input>
			<output>
				<port id="2" precision="FP32">
					<dim>64</dim>
					<dim>32</dim>
					<dim>1</dim>
					<dim>1</dim>
				</port>
			</output>
		</layer>
		<layer id="296" name="bottleneck2_0/skip/conv" type="Convolution" version="opset1">
			<data auto_pad="explicit" strides="1,1" dilations="1,1" pads_begin="0,0" pads_end="0,0"/>
			<input>
				<port id="0">
					<dim>1</dim>
					<dim>32</dim>
					<dim>80</dim>
					<dim>136</dim>
				</port>
				<port id="1">
					<dim>64</dim>
					<dim>32</dim>
					<dim>1</dim>
					<dim>1</dim>
				</port>
			</input>
			<output>
				<port id="2" precision="FP32">
					<dim>1</dim>
					<dim>64</dim>
					<dim>80</dim>
					<dim>136</dim>
				</port>
			</output>
		</layer>
		<layer id="297" name="data_add_2455324558121528472" type="Const" version="opset1">
			<data offset="7350" size="128" shape="1,64,1,1" element_type="f16"/>
			<output>
				<port id="0" precision="FP16">
					<dim>1</dim>
					<dim>64</dim>
					<dim>1</dim>
					<dim>1</dim>
				</port>
			</output>
		</layer>
		<layer id="298" name="data_add_2455324558121513958/restored_convert" type="Convert" version="opset1">
			<data destination_type="f32"/>
			<rt_info>
				<attribute name="decompression" version="0"/>
			</rt_info>
			<input>
				<port id="0">
					<dim>1</dim>
					<dim>64</dim>
					<dim>1</dim>
					<dim>1</dim>
				</port>
			</input>
			<output>
				<port id="1" precision="FP32">
					<dim>1</dim>
					<dim>64</dim>
					<dim>1</dim>
					<dim>1</dim>
				</port>
			</output>
		</layer>
		<layer id="299" name="bottleneck2_0/skip/bn/variance/Fused_Add_" type="Add" version="opset1">
			<data auto_broadcast="numpy"/>
			<input>
				<port id="0">
					<dim>1</dim>
					<dim>64</dim>
					<dim>80</dim>
					<dim>136</dim>
				</port>
				<port id="1">
					<dim>1</dim>
					<dim>64</dim>
					<dim>1</dim>
					<dim>1</dim>
				</port>
			</input>
			<output>
				<port id="2" precision="FP32" names="bottleneck2_0/skip/conv">
					<dim>1</dim>
					<dim>64</dim>
					<dim>80</dim>
					<dim>136</dim>
				</port>
			</output>
		</layer>
		<layer id="300" name="bottleneck2_0/add/fq_input_0" type="FakeQuantize" version="opset1">
			<data levels="256" auto_broadcast="numpy"/>
			<input>
				<port id="0">
					<dim>1</dim>
					<dim>64</dim>
					<dim>80</dim>
					<dim>136</dim>
				</port>
				<port id="1"/>
				<port id="2"/>
				<port id="3"/>
				<port id="4"/>
			</input>
			<output>
				<port id="5" precision="FP32">
					<dim>1</dim>
					<dim>64</dim>
					<dim>80</dim>
					<dim>136</dim>
				</port>
			</output>
		</layer>
		<layer id="301" name="4727473126852" type="Const" version="opset1">
			<data offset="7478" size="4" shape="" element_type="f32"/>
			<output>
				<port id="0" precision="FP32"/>
			</output>
		</layer>
		<layer id="302" name="4728473228199" type="Const" version="opset1">
			<data offset="7482" size="4" shape="" element_type="f32"/>
			<output>
				<port id="0" precision="FP32"/>
			</output>
		</layer>
		<layer id="303" name="4729473326072" type="Const" version="opset1">
			<data offset="7478" size="4" shape="" element_type="f32"/>
			<output>
				<port id="0" precision="FP32"/>
			</output>
		</layer>
		<layer id="304" name="4730473427509" type="Const" version="opset1">
			<data offset="7482" size="4" shape="" element_type="f32"/>
			<output>
				<port id="0" precision="FP32"/>
			</output>
		</layer>
		<layer id="305" name="6257626129075" type="Const" version="opset1">
			<data offset="7486" size="4" shape="" element_type="f32"/>
			<output>
				<port id="0" precision="FP32"/>
			</output>
		</layer>
		<layer id="306" name="6258626228739" type="Const" version="opset1">
			<data offset="7490" size="4" shape="" element_type="f32"/>
			<output>
				<port id="0" precision="FP32"/>
			</output>
		</layer>
		<layer id="307" name="6259626326813" type="Const" version="opset1">
			<data offset="7486" size="4" shape="" element_type="f32"/>
			<output>
				<port id="0" precision="FP32"/>
			</output>
		</layer>
		<layer id="308" name="6260626428232" type="Const" version="opset1">
			<data offset="7490" size="4" shape="" element_type="f32"/>
			<output>
				<port id="0" precision="FP32"/>
			</output>
		</layer>
		<layer id="309" name="5037504126096" type="Const" version="opset1">
			<data offset="7494" size="64" shape="1,16,1,1" element_type="f32"/>
			<output>
				<port id="0" precision="FP32">
					<dim>1</dim>
					<dim>16</dim>
					<dim>1</dim>
					<dim>1</dim>
				</port>
			</output>
		</layer>
		<layer id="310" name="5038504227851" type="Const" version="opset1">
			<data offset="7558" size="64" shape="1,16,1,1" element_type="f32"/>
			<output>
				<port id="0" precision="FP32">
					<dim>1</dim>
					<dim>16</dim>
					<dim>1</dim>
					<dim>1</dim>
				</port>
			</output>
		</layer>
		<layer id="311" name="5039504326735" type="Const" version="opset1">
			<data offset="7494" size="64" shape="1,16,1,1" element_type="f32"/>
			<output>
				<port id="0" precision="FP32">
					<dim>1</dim>
					<dim>16</dim>
					<dim>1</dim>
					<dim>1</dim>
				</port>
			</output>
		</layer>
		<layer id="312" name="5040504427239" type="Const" version="opset1">
			<data offset="7558" size="64" shape="1,16,1,1" element_type="f32"/>
			<output>
				<port id="0" precision="FP32">
					<dim>1</dim>
					<dim>16</dim>
					<dim>1</dim>
					<dim>1</dim>
				</port>
			</output>
		</layer>
		<layer id="313" name="bottleneck2_0/dim_red/conv/fq_weights_1/scale1823127983" type="Const" version="opset1">
			<data offset="7622" size="64" shape="16,1,1,1" element_type="f32"/>
			<output>
				<port id="0" precision="FP32">
					<dim>16</dim>
					<dim>1</dim>
					<dim>1</dim>
					<dim>1</dim>
				</port>
			</output>
		</layer>
		<layer id="314" name="bottleneck2_0/dim_red/bn/mean/Fused_Mul__copy121813959/restored_convert/quantized1822326798" type="Const" version="opset1">
			<data offset="7686" size="512" shape="16,32,1,1" element_type="i8"/>
			<output>
				<port id="0" precision="I8">
					<dim>16</dim>
					<dim>32</dim>
					<dim>1</dim>
					<dim>1</dim>
				</port>
			</output>
		</layer>
		<layer id="315" name="bottleneck2_0/dim_red/bn/mean/Fused_Mul__copy121813959/restored_convert/quantized/to_f32" type="Convert" version="opset1">
			<data destination_type="f32"/>
			<input>
				<port id="0">
					<dim>16</dim>
					<dim>32</dim>
					<dim>1</dim>
					<dim>1</dim>
				</port>
			</input>
			<output>
				<port id="1" precision="FP32">
					<dim>16</dim>
					<dim>32</dim>
					<dim>1</dim>
					<dim>1</dim>
				</port>
			</output>
		</layer>
		<layer id="316" name="bottleneck2_0/dim_red/conv/fq_weights_1/mulpiply_by_scale" type="Multiply" version="opset1">
			<data auto_broadcast="numpy"/>
			<input>
				<port id="0">
					<dim>16</dim>
					<dim>32</dim>
					<dim>1</dim>
					<dim>1</dim>
				</port>
				<port id="1">
					<dim>16</dim>
					<dim>1</dim>
					<dim>1</dim>
					<dim>1</dim>
				</port>
			</input>
			<output>
				<port id="2" precision="FP32">
					<dim>16</dim>
					<dim>32</dim>
					<dim>1</dim>
					<dim>1</dim>
				</port>
			</output>
		</layer>
		<layer id="317" name="bottleneck2_0/dim_red/conv" type="Convolution" version="opset1">
			<data auto_pad="explicit" strides="1,1" dilations="1,1" pads_begin="0,0" pads_end="0,0"/>
			<input>
				<port id="0">
					<dim>1</dim>
					<dim>32</dim>
					<dim>160</dim>
					<dim>272</dim>
				</port>
				<port id="1">
					<dim>16</dim>
					<dim>32</dim>
					<dim>1</dim>
					<dim>1</dim>
				</port>
			</input>
			<output>
				<port id="2" precision="FP32">
					<dim>1</dim>
					<dim>16</dim>
					<dim>160</dim>
					<dim>272</dim>
				</port>
			</output>
		</layer>
		<layer id="318" name="data_add_2456124566122128595" type="Const" version="opset1">
			<data offset="8198" size="32" shape="1,16,1,1" element_type="f16"/>
			<output>
				<port id="0" precision="FP16">
					<dim>1</dim>
					<dim>16</dim>
					<dim>1</dim>
					<dim>1</dim>
				</port>
			</output>
		</layer>
		<layer id="319" name="data_add_2456124566122113960/restored_convert" type="Convert" version="opset1">
			<data destination_type="f32"/>
			<rt_info>
				<attribute name="decompression" version="0"/>
			</rt_info>
			<input>
				<port id="0">
					<dim>1</dim>
					<dim>16</dim>
					<dim>1</dim>
					<dim>1</dim>
				</port>
			</input>
			<output>
				<port id="1" precision="FP32">
					<dim>1</dim>
					<dim>16</dim>
					<dim>1</dim>
					<dim>1</dim>
				</port>
			</output>
		</layer>
		<layer id="320" name="bottleneck2_0/dim_red/bn/variance/Fused_Add_" type="Add" version="opset1">
			<data auto_broadcast="numpy"/>
			<input>
				<port id="0">
					<dim>1</dim>
					<dim>16</dim>
					<dim>160</dim>
					<dim>272</dim>
				</port>
				<port id="1">
					<dim>1</dim>
					<dim>16</dim>
					<dim>1</dim>
					<dim>1</dim>
				</port>
			</input>
			<output>
				<port id="2" precision="FP32" names="bottleneck2_0/dim_red/conv">
					<dim>1</dim>
					<dim>16</dim>
					<dim>160</dim>
					<dim>272</dim>
				</port>
			</output>
		</layer>
		<layer id="321" name="bottleneck2_0/dim_red/fn/weights3116440604122426030" type="Const" version="opset1">
			<data offset="1500" size="2" shape="1" element_type="f16"/>
			<output>
				<port id="0" precision="FP16">
					<dim>1</dim>
				</port>
			</output>
		</layer>
		<layer id="322" name="bottleneck2_0/dim_red/fn/weights3116440604122413961/restored_convert" type="Convert" version="opset1">
			<data destination_type="f32"/>
			<rt_info>
				<attribute name="decompression" version="0"/>
			</rt_info>
			<input>
				<port id="0">
					<dim>1</dim>
				</port>
			</input>
			<output>
				<port id="1" precision="FP32">
					<dim>1</dim>
				</port>
			</output>
		</layer>
		<layer id="323" name="bottleneck2_0/dim_red/fn" type="PReLU" version="opset1">
			<input>
				<port id="0">
					<dim>1</dim>
					<dim>16</dim>
					<dim>160</dim>
					<dim>272</dim>
				</port>
				<port id="1">
					<dim>1</dim>
				</port>
			</input>
			<output>
				<port id="2" precision="FP32" names="bottleneck2_0/dim_red/conv">
					<dim>1</dim>
					<dim>16</dim>
					<dim>160</dim>
					<dim>272</dim>
				</port>
			</output>
		</layer>
		<layer id="324" name="bottleneck2_0/inner/dw1/conv/fq_input_0" type="FakeQuantize" version="opset1">
			<data levels="256" auto_broadcast="numpy"/>
			<input>
				<port id="0">
					<dim>1</dim>
					<dim>16</dim>
					<dim>160</dim>
					<dim>272</dim>
				</port>
				<port id="1">
					<dim>1</dim>
					<dim>16</dim>
					<dim>1</dim>
					<dim>1</dim>
				</port>
				<port id="2">
					<dim>1</dim>
					<dim>16</dim>
					<dim>1</dim>
					<dim>1</dim>
				</port>
				<port id="3">
					<dim>1</dim>
					<dim>16</dim>
					<dim>1</dim>
					<dim>1</dim>
				</port>
				<port id="4">
					<dim>1</dim>
					<dim>16</dim>
					<dim>1</dim>
					<dim>1</dim>
				</port>
			</input>
			<output>
				<port id="5" precision="FP32">
					<dim>1</dim>
					<dim>16</dim>
					<dim>160</dim>
					<dim>272</dim>
				</port>
			</output>
		</layer>
		<layer id="325" name="bottleneck2_0/inner/dw1/conv/weights_shape2301328748" type="Const" version="opset1">
			<data offset="8230" size="40" shape="5" element_type="i64"/>
			<output>
				<port id="0" precision="I64">
					<dim>5</dim>
				</port>
			</output>
		</layer>
		<layer id="326" name="bottleneck2_0/inner/dw1/conv/fq_weights_1/scale1754127041" type="Const" version="opset1">
			<data offset="8270" size="64" shape="16,1,1,1" element_type="f32"/>
			<output>
				<port id="0" precision="FP32">
					<dim>16</dim>
					<dim>1</dim>
					<dim>1</dim>
					<dim>1</dim>
				</port>
			</output>
		</layer>
		<layer id="327" name="bottleneck2_0/inner/dw1/bn/mean/Fused_Mul__copy122713962/restored_convert/quantized1753326144" type="Const" version="opset1">
			<data offset="8334" size="144" shape="16,1,3,3" element_type="i8"/>
			<output>
				<port id="0" precision="I8">
					<dim>16</dim>
					<dim>1</dim>
					<dim>3</dim>
					<dim>3</dim>
				</port>
			</output>
		</layer>
		<layer id="328" name="bottleneck2_0/inner/dw1/bn/mean/Fused_Mul__copy122713962/restored_convert/quantized/to_f32" type="Convert" version="opset1">
			<data destination_type="f32"/>
			<input>
				<port id="0">
					<dim>16</dim>
					<dim>1</dim>
					<dim>3</dim>
					<dim>3</dim>
				</port>
			</input>
			<output>
				<port id="1" precision="FP32">
					<dim>16</dim>
					<dim>1</dim>
					<dim>3</dim>
					<dim>3</dim>
				</port>
			</output>
		</layer>
		<layer id="329" name="bottleneck2_0/inner/dw1/conv/fq_weights_1/mulpiply_by_scale" type="Multiply" version="opset1">
			<data auto_broadcast="numpy"/>
			<input>
				<port id="0">
					<dim>16</dim>
					<dim>1</dim>
					<dim>3</dim>
					<dim>3</dim>
				</port>
				<port id="1">
					<dim>16</dim>
					<dim>1</dim>
					<dim>1</dim>
					<dim>1</dim>
				</port>
			</input>
			<output>
				<port id="2" precision="FP32">
					<dim>16</dim>
					<dim>1</dim>
					<dim>3</dim>
					<dim>3</dim>
				</port>
			</output>
		</layer>
		<layer id="330" name="23012" type="Reshape" version="opset1">
			<data special_zero="true"/>
			<input>
				<port id="0">
					<dim>16</dim>
					<dim>1</dim>
					<dim>3</dim>
					<dim>3</dim>
				</port>
				<port id="1">
					<dim>5</dim>
				</port>
			</input>
			<output>
				<port id="2" precision="FP32">
					<dim>16</dim>
					<dim>1</dim>
					<dim>1</dim>
					<dim>3</dim>
					<dim>3</dim>
				</port>
			</output>
		</layer>
		<layer id="331" name="bottleneck2_0/inner/dw1/conv" type="GroupConvolution" version="opset1">
			<data auto_pad="explicit" strides="2,2" dilations="1,1" pads_begin="1,1" pads_end="1,1"/>
			<input>
				<port id="0">
					<dim>1</dim>
					<dim>16</dim>
					<dim>160</dim>
					<dim>272</dim>
				</port>
				<port id="1">
					<dim>16</dim>
					<dim>1</dim>
					<dim>1</dim>
					<dim>3</dim>
					<dim>3</dim>
				</port>
			</input>
			<output>
				<port id="2" precision="FP32">
					<dim>1</dim>
					<dim>16</dim>
					<dim>80</dim>
					<dim>136</dim>
				</port>
			</output>
		</layer>
		<layer id="332" name="data_add_2456924574123026078" type="Const" version="opset1">
			<data offset="8478" size="32" shape="1,16,1,1" element_type="f16"/>
			<output>
				<port id="0" precision="FP16">
					<dim>1</dim>
					<dim>16</dim>
					<dim>1</dim>
					<dim>1</dim>
				</port>
			</output>
		</layer>
		<layer id="333" name="data_add_2456924574123013963/restored_convert" type="Convert" version="opset1">
			<data destination_type="f32"/>
			<rt_info>
				<attribute name="decompression" version="0"/>
			</rt_info>
			<input>
				<port id="0">
					<dim>1</dim>
					<dim>16</dim>
					<dim>1</dim>
					<dim>1</dim>
				</port>
			</input>
			<output>
				<port id="1" precision="FP32">
					<dim>1</dim>
					<dim>16</dim>
					<dim>1</dim>
					<dim>1</dim>
				</port>
			</output>
		</layer>
		<layer id="334" name="bottleneck2_0/inner/dw1/bn/variance/Fused_Add_" type="Add" version="opset1">
			<data auto_broadcast="numpy"/>
			<input>
				<port id="0">
					<dim>1</dim>
					<dim>16</dim>
					<dim>80</dim>
					<dim>136</dim>
				</port>
				<port id="1">
					<dim>1</dim>
					<dim>16</dim>
					<dim>1</dim>
					<dim>1</dim>
				</port>
			</input>
			<output>
				<port id="2" precision="FP32" names="bottleneck2_0/inner/dw1/conv">
					<dim>1</dim>
					<dim>16</dim>
					<dim>80</dim>
					<dim>136</dim>
				</port>
			</output>
		</layer>
		<layer id="335" name="bottleneck2_0/inner/dw1/fn/weights3104440319123328757" type="Const" version="opset1">
			<data offset="1500" size="2" shape="1" element_type="f16"/>
			<output>
				<port id="0" precision="FP16">
					<dim>1</dim>
				</port>
			</output>
		</layer>
		<layer id="336" name="bottleneck2_0/inner/dw1/fn/weights3104440319123313964/restored_convert" type="Convert" version="opset1">
			<data destination_type="f32"/>
			<rt_info>
				<attribute name="decompression" version="0"/>
			</rt_info>
			<input>
				<port id="0">
					<dim>1</dim>
				</port>
			</input>
			<output>
				<port id="1" precision="FP32">
					<dim>1</dim>
				</port>
			</output>
		</layer>
		<layer id="337" name="bottleneck2_0/inner/dw1/fn" type="PReLU" version="opset1">
			<input>
				<port id="0">
					<dim>1</dim>
					<dim>16</dim>
					<dim>80</dim>
					<dim>136</dim>
				</port>
				<port id="1">
					<dim>1</dim>
				</port>
			</input>
			<output>
				<port id="2" precision="FP32" names="bottleneck2_0/inner/dw1/conv">
					<dim>1</dim>
					<dim>16</dim>
					<dim>80</dim>
					<dim>136</dim>
				</port>
			</output>
		</layer>
		<layer id="338" name="bottleneck2_0/dim_inc/conv/fq_input_0" type="FakeQuantize" version="opset1">
			<data levels="256" auto_broadcast="numpy"/>
			<input>
				<port id="0">
					<dim>1</dim>
					<dim>16</dim>
					<dim>80</dim>
					<dim>136</dim>
				</port>
				<port id="1"/>
				<port id="2"/>
				<port id="3"/>
				<port id="4"/>
			</input>
			<output>
				<port id="5" precision="FP32">
					<dim>1</dim>
					<dim>16</dim>
					<dim>80</dim>
					<dim>136</dim>
				</port>
			</output>
		</layer>
		<layer id="339" name="bottleneck2_0/dim_inc/conv/fq_weights_1/scale1655128226" type="Const" version="opset1">
			<data offset="8510" size="256" shape="64,1,1,1" element_type="f32"/>
			<output>
				<port id="0" precision="FP32">
					<dim>64</dim>
					<dim>1</dim>
					<dim>1</dim>
					<dim>1</dim>
				</port>
			</output>
		</layer>
		<layer id="340" name="bottleneck2_0/dim_inc/bn/mean/Fused_Mul__copy123613965/restored_convert/quantized1654327017" type="Const" version="opset1">
			<data offset="8766" size="1024" shape="64,16,1,1" element_type="i8"/>
			<output>
				<port id="0" precision="I8">
					<dim>64</dim>
					<dim>16</dim>
					<dim>1</dim>
					<dim>1</dim>
				</port>
			</output>
		</layer>
		<layer id="341" name="bottleneck2_0/dim_inc/bn/mean/Fused_Mul__copy123613965/restored_convert/quantized/to_f32" type="Convert" version="opset1">
			<data destination_type="f32"/>
			<input>
				<port id="0">
					<dim>64</dim>
					<dim>16</dim>
					<dim>1</dim>
					<dim>1</dim>
				</port>
			</input>
			<output>
				<port id="1" precision="FP32">
					<dim>64</dim>
					<dim>16</dim>
					<dim>1</dim>
					<dim>1</dim>
				</port>
			</output>
		</layer>
		<layer id="342" name="bottleneck2_0/dim_inc/conv/fq_weights_1/mulpiply_by_scale" type="Multiply" version="opset1">
			<data auto_broadcast="numpy"/>
			<input>
				<port id="0">
					<dim>64</dim>
					<dim>16</dim>
					<dim>1</dim>
					<dim>1</dim>
				</port>
				<port id="1">
					<dim>64</dim>
					<dim>1</dim>
					<dim>1</dim>
					<dim>1</dim>
				</port>
			</input>
			<output>
				<port id="2" precision="FP32">
					<dim>64</dim>
					<dim>16</dim>
					<dim>1</dim>
					<dim>1</dim>
				</port>
			</output>
		</layer>
		<layer id="343" name="bottleneck2_0/dim_inc/conv" type="Convolution" version="opset1">
			<data auto_pad="explicit" strides="1,1" dilations="1,1" pads_begin="0,0" pads_end="0,0"/>
			<input>
				<port id="0">
					<dim>1</dim>
					<dim>16</dim>
					<dim>80</dim>
					<dim>136</dim>
				</port>
				<port id="1">
					<dim>64</dim>
					<dim>16</dim>
					<dim>1</dim>
					<dim>1</dim>
				</port>
			</input>
			<output>
				<port id="2" precision="FP32">
					<dim>1</dim>
					<dim>64</dim>
					<dim>80</dim>
					<dim>136</dim>
				</port>
			</output>
		</layer>
		<layer id="344" name="data_add_2457724582123928148" type="Const" version="opset1">
			<data offset="9790" size="128" shape="1,64,1,1" element_type="f16"/>
			<output>
				<port id="0" precision="FP16">
					<dim>1</dim>
					<dim>64</dim>
					<dim>1</dim>
					<dim>1</dim>
				</port>
			</output>
		</layer>
		<layer id="345" name="data_add_2457724582123913966/restored_convert" type="Convert" version="opset1">
			<data destination_type="f32"/>
			<rt_info>
				<attribute name="decompression" version="0"/>
			</rt_info>
			<input>
				<port id="0">
					<dim>1</dim>
					<dim>64</dim>
					<dim>1</dim>
					<dim>1</dim>
				</port>
			</input>
			<output>
				<port id="1" precision="FP32">
					<dim>1</dim>
					<dim>64</dim>
					<dim>1</dim>
					<dim>1</dim>
				</port>
			</output>
		</layer>
		<layer id="346" name="bottleneck2_0/dim_inc/bn/variance/Fused_Add_" type="Add" version="opset1">
			<data auto_broadcast="numpy"/>
			<input>
				<port id="0">
					<dim>1</dim>
					<dim>64</dim>
					<dim>80</dim>
					<dim>136</dim>
				</port>
				<port id="1">
					<dim>1</dim>
					<dim>64</dim>
					<dim>1</dim>
					<dim>1</dim>
				</port>
			</input>
			<output>
				<port id="2" precision="FP32" names="bottleneck2_0/dim_inc/conv">
					<dim>1</dim>
					<dim>64</dim>
					<dim>80</dim>
					<dim>136</dim>
				</port>
			</output>
		</layer>
		<layer id="347" name="bottleneck2_0/add/fq_input_1" type="FakeQuantize" version="opset1">
			<data levels="256" auto_broadcast="numpy"/>
			<input>
				<port id="0">
					<dim>1</dim>
					<dim>64</dim>
					<dim>80</dim>
					<dim>136</dim>
				</port>
				<port id="1"/>
				<port id="2"/>
				<port id="3"/>
				<port id="4"/>
			</input>
			<output>
				<port id="5" precision="FP32">
					<dim>1</dim>
					<dim>64</dim>
					<dim>80</dim>
					<dim>136</dim>
				</port>
			</output>
		</layer>
		<layer id="348" name="bottleneck2_0/add" type="Add" version="opset1">
			<data auto_broadcast="numpy"/>
			<input>
				<port id="0">
					<dim>1</dim>
					<dim>64</dim>
					<dim>80</dim>
					<dim>136</dim>
				</port>
				<port id="1">
					<dim>1</dim>
					<dim>64</dim>
					<dim>80</dim>
					<dim>136</dim>
				</port>
			</input>
			<output>
				<port id="2" precision="FP32" names="bottleneck2_0/add">
					<dim>1</dim>
					<dim>64</dim>
					<dim>80</dim>
					<dim>136</dim>
				</port>
			</output>
		</layer>
		<layer id="349" name="bottleneck2_0/fn/weights3109240355124327638" type="Const" version="opset1">
			<data offset="1500" size="2" shape="1" element_type="f16"/>
			<output>
				<port id="0" precision="FP16">
					<dim>1</dim>
				</port>
			</output>
		</layer>
		<layer id="350" name="bottleneck2_0/fn/weights3109240355124313967/restored_convert" type="Convert" version="opset1">
			<data destination_type="f32"/>
			<rt_info>
				<attribute name="decompression" version="0"/>
			</rt_info>
			<input>
				<port id="0">
					<dim>1</dim>
				</port>
			</input>
			<output>
				<port id="1" precision="FP32">
					<dim>1</dim>
				</port>
			</output>
		</layer>
		<layer id="351" name="bottleneck2_0/fn" type="PReLU" version="opset1">
			<input>
				<port id="0">
					<dim>1</dim>
					<dim>64</dim>
					<dim>80</dim>
					<dim>136</dim>
				</port>
				<port id="1">
					<dim>1</dim>
				</port>
			</input>
			<output>
				<port id="2" precision="FP32" names="bottleneck2_0/add">
					<dim>1</dim>
					<dim>64</dim>
					<dim>80</dim>
					<dim>136</dim>
				</port>
			</output>
		</layer>
		<layer id="352" name="bottleneck2_1/add/fq_input_0" type="FakeQuantize" version="opset1">
			<data levels="256" auto_broadcast="numpy"/>
			<input>
				<port id="0">
					<dim>1</dim>
					<dim>64</dim>
					<dim>80</dim>
					<dim>136</dim>
				</port>
				<port id="1"/>
				<port id="2"/>
				<port id="3"/>
				<port id="4"/>
			</input>
			<output>
				<port id="5" precision="FP32">
					<dim>1</dim>
					<dim>64</dim>
					<dim>80</dim>
					<dim>136</dim>
				</port>
			</output>
		</layer>
		<layer id="353" name="4247425126435" type="Const" version="opset1">
			<data offset="9918" size="4" shape="" element_type="f32"/>
			<output>
				<port id="0" precision="FP32"/>
			</output>
		</layer>
		<layer id="354" name="4248425228829" type="Const" version="opset1">
			<data offset="9922" size="4" shape="" element_type="f32"/>
			<output>
				<port id="0" precision="FP32"/>
			</output>
		</layer>
		<layer id="355" name="4249425325937" type="Const" version="opset1">
			<data offset="9918" size="4" shape="" element_type="f32"/>
			<output>
				<port id="0" precision="FP32"/>
			</output>
		</layer>
		<layer id="356" name="4250425426057" type="Const" version="opset1">
			<data offset="9922" size="4" shape="" element_type="f32"/>
			<output>
				<port id="0" precision="FP32"/>
			</output>
		</layer>
		<layer id="357" name="5237524127497" type="Const" version="opset1">
			<data offset="9926" size="4" shape="" element_type="f32"/>
			<output>
				<port id="0" precision="FP32"/>
			</output>
		</layer>
		<layer id="358" name="5238524227632" type="Const" version="opset1">
			<data offset="9930" size="4" shape="" element_type="f32"/>
			<output>
				<port id="0" precision="FP32"/>
			</output>
		</layer>
		<layer id="359" name="5239524328157" type="Const" version="opset1">
			<data offset="9926" size="4" shape="" element_type="f32"/>
			<output>
				<port id="0" precision="FP32"/>
			</output>
		</layer>
		<layer id="360" name="5240524427161" type="Const" version="opset1">
			<data offset="9930" size="4" shape="" element_type="f32"/>
			<output>
				<port id="0" precision="FP32"/>
			</output>
		</layer>
		<layer id="361" name="6297630126660" type="Const" version="opset1">
			<data offset="9934" size="64" shape="1,16,1,1" element_type="f32"/>
			<output>
				<port id="0" precision="FP32">
					<dim>1</dim>
					<dim>16</dim>
					<dim>1</dim>
					<dim>1</dim>
				</port>
			</output>
		</layer>
		<layer id="362" name="6298630226921" type="Const" version="opset1">
			<data offset="9998" size="64" shape="1,16,1,1" element_type="f32"/>
			<output>
				<port id="0" precision="FP32">
					<dim>1</dim>
					<dim>16</dim>
					<dim>1</dim>
					<dim>1</dim>
				</port>
			</output>
		</layer>
		<layer id="363" name="6299630326279" type="Const" version="opset1">
			<data offset="9934" size="64" shape="1,16,1,1" element_type="f32"/>
			<output>
				<port id="0" precision="FP32">
					<dim>1</dim>
					<dim>16</dim>
					<dim>1</dim>
					<dim>1</dim>
				</port>
			</output>
		</layer>
		<layer id="364" name="6300630426453" type="Const" version="opset1">
			<data offset="9998" size="64" shape="1,16,1,1" element_type="f32"/>
			<output>
				<port id="0" precision="FP32">
					<dim>1</dim>
					<dim>16</dim>
					<dim>1</dim>
					<dim>1</dim>
				</port>
			</output>
		</layer>
		<layer id="365" name="bottleneck2_1/dim_red/conv/fq_weights_1/scale1640125832" type="Const" version="opset1">
			<data offset="10062" size="64" shape="16,1,1,1" element_type="f32"/>
			<output>
				<port id="0" precision="FP32">
					<dim>16</dim>
					<dim>1</dim>
					<dim>1</dim>
					<dim>1</dim>
				</port>
			</output>
		</layer>
		<layer id="366" name="bottleneck2_1/dim_red/bn/mean/Fused_Mul__copy124613968/restored_convert/quantized1639327611" type="Const" version="opset1">
			<data offset="10126" size="1024" shape="16,64,1,1" element_type="i8"/>
			<output>
				<port id="0" precision="I8">
					<dim>16</dim>
					<dim>64</dim>
					<dim>1</dim>
					<dim>1</dim>
				</port>
			</output>
		</layer>
		<layer id="367" name="bottleneck2_1/dim_red/bn/mean/Fused_Mul__copy124613968/restored_convert/quantized/to_f32" type="Convert" version="opset1">
			<data destination_type="f32"/>
			<input>
				<port id="0">
					<dim>16</dim>
					<dim>64</dim>
					<dim>1</dim>
					<dim>1</dim>
				</port>
			</input>
			<output>
				<port id="1" precision="FP32">
					<dim>16</dim>
					<dim>64</dim>
					<dim>1</dim>
					<dim>1</dim>
				</port>
			</output>
		</layer>
		<layer id="368" name="bottleneck2_1/dim_red/conv/fq_weights_1/mulpiply_by_scale" type="Multiply" version="opset1">
			<data auto_broadcast="numpy"/>
			<input>
				<port id="0">
					<dim>16</dim>
					<dim>64</dim>
					<dim>1</dim>
					<dim>1</dim>
				</port>
				<port id="1">
					<dim>16</dim>
					<dim>1</dim>
					<dim>1</dim>
					<dim>1</dim>
				</port>
			</input>
			<output>
				<port id="2" precision="FP32">
					<dim>16</dim>
					<dim>64</dim>
					<dim>1</dim>
					<dim>1</dim>
				</port>
			</output>
		</layer>
		<layer id="369" name="bottleneck2_1/dim_red/conv" type="Convolution" version="opset1">
			<data auto_pad="explicit" strides="1,1" dilations="1,1" pads_begin="0,0" pads_end="0,0"/>
			<input>
				<port id="0">
					<dim>1</dim>
					<dim>64</dim>
					<dim>80</dim>
					<dim>136</dim>
				</port>
				<port id="1">
					<dim>16</dim>
					<dim>64</dim>
					<dim>1</dim>
					<dim>1</dim>
				</port>
			</input>
			<output>
				<port id="2" precision="FP32">
					<dim>1</dim>
					<dim>16</dim>
					<dim>80</dim>
					<dim>136</dim>
				</port>
			</output>
		</layer>
		<layer id="370" name="data_add_2458524590124926210" type="Const" version="opset1">
			<data offset="11150" size="32" shape="1,16,1,1" element_type="f16"/>
			<output>
				<port id="0" precision="FP16">
					<dim>1</dim>
					<dim>16</dim>
					<dim>1</dim>
					<dim>1</dim>
				</port>
			</output>
		</layer>
		<layer id="371" name="data_add_2458524590124913969/restored_convert" type="Convert" version="opset1">
			<data destination_type="f32"/>
			<rt_info>
				<attribute name="decompression" version="0"/>
			</rt_info>
			<input>
				<port id="0">
					<dim>1</dim>
					<dim>16</dim>
					<dim>1</dim>
					<dim>1</dim>
				</port>
			</input>
			<output>
				<port id="1" precision="FP32">
					<dim>1</dim>
					<dim>16</dim>
					<dim>1</dim>
					<dim>1</dim>
				</port>
			</output>
		</layer>
		<layer id="372" name="bottleneck2_1/dim_red/bn/variance/Fused_Add_" type="Add" version="opset1">
			<data auto_broadcast="numpy"/>
			<input>
				<port id="0">
					<dim>1</dim>
					<dim>16</dim>
					<dim>80</dim>
					<dim>136</dim>
				</port>
				<port id="1">
					<dim>1</dim>
					<dim>16</dim>
					<dim>1</dim>
					<dim>1</dim>
				</port>
			</input>
			<output>
				<port id="2" precision="FP32" names="bottleneck2_1/dim_red/conv">
					<dim>1</dim>
					<dim>16</dim>
					<dim>80</dim>
					<dim>136</dim>
				</port>
			</output>
		</layer>
		<layer id="373" name="bottleneck2_1/dim_red/fn/weights3091640775125228052" type="Const" version="opset1">
			<data offset="1500" size="2" shape="1" element_type="f16"/>
			<output>
				<port id="0" precision="FP16">
					<dim>1</dim>
				</port>
			</output>
		</layer>
		<layer id="374" name="bottleneck2_1/dim_red/fn/weights3091640775125213970/restored_convert" type="Convert" version="opset1">
			<data destination_type="f32"/>
			<rt_info>
				<attribute name="decompression" version="0"/>
			</rt_info>
			<input>
				<port id="0">
					<dim>1</dim>
				</port>
			</input>
			<output>
				<port id="1" precision="FP32">
					<dim>1</dim>
				</port>
			</output>
		</layer>
		<layer id="375" name="bottleneck2_1/dim_red/fn" type="PReLU" version="opset1">
			<input>
				<port id="0">
					<dim>1</dim>
					<dim>16</dim>
					<dim>80</dim>
					<dim>136</dim>
				</port>
				<port id="1">
					<dim>1</dim>
				</port>
			</input>
			<output>
				<port id="2" precision="FP32" names="bottleneck2_1/dim_red/conv">
					<dim>1</dim>
					<dim>16</dim>
					<dim>80</dim>
					<dim>136</dim>
				</port>
			</output>
		</layer>
		<layer id="376" name="bottleneck2_1/inner/dw1/conv/fq_input_0" type="FakeQuantize" version="opset1">
			<data levels="256" auto_broadcast="numpy"/>
			<input>
				<port id="0">
					<dim>1</dim>
					<dim>16</dim>
					<dim>80</dim>
					<dim>136</dim>
				</port>
				<port id="1">
					<dim>1</dim>
					<dim>16</dim>
					<dim>1</dim>
					<dim>1</dim>
				</port>
				<port id="2">
					<dim>1</dim>
					<dim>16</dim>
					<dim>1</dim>
					<dim>1</dim>
				</port>
				<port id="3">
					<dim>1</dim>
					<dim>16</dim>
					<dim>1</dim>
					<dim>1</dim>
				</port>
				<port id="4">
					<dim>1</dim>
					<dim>16</dim>
					<dim>1</dim>
					<dim>1</dim>
				</port>
			</input>
			<output>
				<port id="5" precision="FP32">
					<dim>1</dim>
					<dim>16</dim>
					<dim>80</dim>
					<dim>136</dim>
				</port>
			</output>
		</layer>
		<layer id="377" name="bottleneck2_1/inner/dw1/conv/weights_shape2302726837" type="Const" version="opset1">
			<data offset="8230" size="40" shape="5" element_type="i64"/>
			<output>
				<port id="0" precision="I64">
					<dim>5</dim>
				</port>
			</output>
		</layer>
		<layer id="378" name="bottleneck2_1/inner/dw1/conv/fq_weights_1/scale1757128874" type="Const" version="opset1">
			<data offset="11182" size="64" shape="16,1,1,1" element_type="f32"/>
			<output>
				<port id="0" precision="FP32">
					<dim>16</dim>
					<dim>1</dim>
					<dim>1</dim>
					<dim>1</dim>
				</port>
			</output>
		</layer>
		<layer id="379" name="bottleneck2_1/inner/dw1/bn/mean/Fused_Mul__copy125513971/restored_convert/quantized1756325790" type="Const" version="opset1">
			<data offset="11246" size="144" shape="16,1,3,3" element_type="i8"/>
			<output>
				<port id="0" precision="I8">
					<dim>16</dim>
					<dim>1</dim>
					<dim>3</dim>
					<dim>3</dim>
				</port>
			</output>
		</layer>
		<layer id="380" name="bottleneck2_1/inner/dw1/bn/mean/Fused_Mul__copy125513971/restored_convert/quantized/to_f32" type="Convert" version="opset1">
			<data destination_type="f32"/>
			<input>
				<port id="0">
					<dim>16</dim>
					<dim>1</dim>
					<dim>3</dim>
					<dim>3</dim>
				</port>
			</input>
			<output>
				<port id="1" precision="FP32">
					<dim>16</dim>
					<dim>1</dim>
					<dim>3</dim>
					<dim>3</dim>
				</port>
			</output>
		</layer>
		<layer id="381" name="bottleneck2_1/inner/dw1/conv/fq_weights_1/mulpiply_by_scale" type="Multiply" version="opset1">
			<data auto_broadcast="numpy"/>
			<input>
				<port id="0">
					<dim>16</dim>
					<dim>1</dim>
					<dim>3</dim>
					<dim>3</dim>
				</port>
				<port id="1">
					<dim>16</dim>
					<dim>1</dim>
					<dim>1</dim>
					<dim>1</dim>
				</port>
			</input>
			<output>
				<port id="2" precision="FP32">
					<dim>16</dim>
					<dim>1</dim>
					<dim>3</dim>
					<dim>3</dim>
				</port>
			</output>
		</layer>
		<layer id="382" name="23026" type="Reshape" version="opset1">
			<data special_zero="true"/>
			<input>
				<port id="0">
					<dim>16</dim>
					<dim>1</dim>
					<dim>3</dim>
					<dim>3</dim>
				</port>
				<port id="1">
					<dim>5</dim>
				</port>
			</input>
			<output>
				<port id="2" precision="FP32">
					<dim>16</dim>
					<dim>1</dim>
					<dim>1</dim>
					<dim>3</dim>
					<dim>3</dim>
				</port>
			</output>
		</layer>
		<layer id="383" name="bottleneck2_1/inner/dw1/conv" type="GroupConvolution" version="opset1">
			<data auto_pad="explicit" strides="1,1" dilations="1,1" pads_begin="1,1" pads_end="1,1"/>
			<input>
				<port id="0">
					<dim>1</dim>
					<dim>16</dim>
					<dim>80</dim>
					<dim>136</dim>
				</port>
				<port id="1">
					<dim>16</dim>
					<dim>1</dim>
					<dim>1</dim>
					<dim>3</dim>
					<dim>3</dim>
				</port>
			</input>
			<output>
				<port id="2" precision="FP32">
					<dim>1</dim>
					<dim>16</dim>
					<dim>80</dim>
					<dim>136</dim>
				</port>
			</output>
		</layer>
		<layer id="384" name="data_add_2459324598125828619" type="Const" version="opset1">
			<data offset="11390" size="32" shape="1,16,1,1" element_type="f16"/>
			<output>
				<port id="0" precision="FP16">
					<dim>1</dim>
					<dim>16</dim>
					<dim>1</dim>
					<dim>1</dim>
				</port>
			</output>
		</layer>
		<layer id="385" name="data_add_2459324598125813972/restored_convert" type="Convert" version="opset1">
			<data destination_type="f32"/>
			<rt_info>
				<attribute name="decompression" version="0"/>
			</rt_info>
			<input>
				<port id="0">
					<dim>1</dim>
					<dim>16</dim>
					<dim>1</dim>
					<dim>1</dim>
				</port>
			</input>
			<output>
				<port id="1" precision="FP32">
					<dim>1</dim>
					<dim>16</dim>
					<dim>1</dim>
					<dim>1</dim>
				</port>
			</output>
		</layer>
		<layer id="386" name="bottleneck2_1/inner/dw1/bn/variance/Fused_Add_" type="Add" version="opset1">
			<data auto_broadcast="numpy"/>
			<input>
				<port id="0">
					<dim>1</dim>
					<dim>16</dim>
					<dim>80</dim>
					<dim>136</dim>
				</port>
				<port id="1">
					<dim>1</dim>
					<dim>16</dim>
					<dim>1</dim>
					<dim>1</dim>
				</port>
			</input>
			<output>
				<port id="2" precision="FP32" names="bottleneck2_1/inner/dw1/conv">
					<dim>1</dim>
					<dim>16</dim>
					<dim>80</dim>
					<dim>136</dim>
				</port>
			</output>
		</layer>
		<layer id="387" name="bottleneck2_1/inner/dw1/fn/weights3122040907126126471" type="Const" version="opset1">
			<data offset="1500" size="2" shape="1" element_type="f16"/>
			<output>
				<port id="0" precision="FP16">
					<dim>1</dim>
				</port>
			</output>
		</layer>
		<layer id="388" name="bottleneck2_1/inner/dw1/fn/weights3122040907126113973/restored_convert" type="Convert" version="opset1">
			<data destination_type="f32"/>
			<rt_info>
				<attribute name="decompression" version="0"/>
			</rt_info>
			<input>
				<port id="0">
					<dim>1</dim>
				</port>
			</input>
			<output>
				<port id="1" precision="FP32">
					<dim>1</dim>
				</port>
			</output>
		</layer>
		<layer id="389" name="bottleneck2_1/inner/dw1/fn" type="PReLU" version="opset1">
			<input>
				<port id="0">
					<dim>1</dim>
					<dim>16</dim>
					<dim>80</dim>
					<dim>136</dim>
				</port>
				<port id="1">
					<dim>1</dim>
				</port>
			</input>
			<output>
				<port id="2" precision="FP32" names="bottleneck2_1/inner/dw1/conv">
					<dim>1</dim>
					<dim>16</dim>
					<dim>80</dim>
					<dim>136</dim>
				</port>
			</output>
		</layer>
		<layer id="390" name="bottleneck2_1/dim_inc/conv/fq_input_0" type="FakeQuantize" version="opset1">
			<data levels="256" auto_broadcast="numpy"/>
			<input>
				<port id="0">
					<dim>1</dim>
					<dim>16</dim>
					<dim>80</dim>
					<dim>136</dim>
				</port>
				<port id="1"/>
				<port id="2"/>
				<port id="3"/>
				<port id="4"/>
			</input>
			<output>
				<port id="5" precision="FP32">
					<dim>1</dim>
					<dim>16</dim>
					<dim>80</dim>
					<dim>136</dim>
				</port>
			</output>
		</layer>
		<layer id="391" name="bottleneck2_1/dim_inc/conv/fq_weights_1/scale1742126564" type="Const" version="opset1">
			<data offset="11422" size="256" shape="64,1,1,1" element_type="f32"/>
			<output>
				<port id="0" precision="FP32">
					<dim>64</dim>
					<dim>1</dim>
					<dim>1</dim>
					<dim>1</dim>
				</port>
			</output>
		</layer>
		<layer id="392" name="bottleneck2_1/dim_inc/bn/mean/Fused_Mul__copy126413974/restored_convert/quantized1741327113" type="Const" version="opset1">
			<data offset="11678" size="1024" shape="64,16,1,1" element_type="i8"/>
			<output>
				<port id="0" precision="I8">
					<dim>64</dim>
					<dim>16</dim>
					<dim>1</dim>
					<dim>1</dim>
				</port>
			</output>
		</layer>
		<layer id="393" name="bottleneck2_1/dim_inc/bn/mean/Fused_Mul__copy126413974/restored_convert/quantized/to_f32" type="Convert" version="opset1">
			<data destination_type="f32"/>
			<input>
				<port id="0">
					<dim>64</dim>
					<dim>16</dim>
					<dim>1</dim>
					<dim>1</dim>
				</port>
			</input>
			<output>
				<port id="1" precision="FP32">
					<dim>64</dim>
					<dim>16</dim>
					<dim>1</dim>
					<dim>1</dim>
				</port>
			</output>
		</layer>
		<layer id="394" name="bottleneck2_1/dim_inc/conv/fq_weights_1/mulpiply_by_scale" type="Multiply" version="opset1">
			<data auto_broadcast="numpy"/>
			<input>
				<port id="0">
					<dim>64</dim>
					<dim>16</dim>
					<dim>1</dim>
					<dim>1</dim>
				</port>
				<port id="1">
					<dim>64</dim>
					<dim>1</dim>
					<dim>1</dim>
					<dim>1</dim>
				</port>
			</input>
			<output>
				<port id="2" precision="FP32">
					<dim>64</dim>
					<dim>16</dim>
					<dim>1</dim>
					<dim>1</dim>
				</port>
			</output>
		</layer>
		<layer id="395" name="bottleneck2_1/dim_inc/conv" type="Convolution" version="opset1">
			<data auto_pad="explicit" strides="1,1" dilations="1,1" pads_begin="0,0" pads_end="0,0"/>
			<input>
				<port id="0">
					<dim>1</dim>
					<dim>16</dim>
					<dim>80</dim>
					<dim>136</dim>
				</port>
				<port id="1">
					<dim>64</dim>
					<dim>16</dim>
					<dim>1</dim>
					<dim>1</dim>
				</port>
			</input>
			<output>
				<port id="2" precision="FP32">
					<dim>1</dim>
					<dim>64</dim>
					<dim>80</dim>
					<dim>136</dim>
				</port>
			</output>
		</layer>
		<layer id="396" name="data_add_2460124606126727179" type="Const" version="opset1">
			<data offset="12702" size="128" shape="1,64,1,1" element_type="f16"/>
			<output>
				<port id="0" precision="FP16">
					<dim>1</dim>
					<dim>64</dim>
					<dim>1</dim>
					<dim>1</dim>
				</port>
			</output>
		</layer>
		<layer id="397" name="data_add_2460124606126713975/restored_convert" type="Convert" version="opset1">
			<data destination_type="f32"/>
			<rt_info>
				<attribute name="decompression" version="0"/>
			</rt_info>
			<input>
				<port id="0">
					<dim>1</dim>
					<dim>64</dim>
					<dim>1</dim>
					<dim>1</dim>
				</port>
			</input>
			<output>
				<port id="1" precision="FP32">
					<dim>1</dim>
					<dim>64</dim>
					<dim>1</dim>
					<dim>1</dim>
				</port>
			</output>
		</layer>
		<layer id="398" name="bottleneck2_1/dim_inc/bn/variance/Fused_Add_" type="Add" version="opset1">
			<data auto_broadcast="numpy"/>
			<input>
				<port id="0">
					<dim>1</dim>
					<dim>64</dim>
					<dim>80</dim>
					<dim>136</dim>
				</port>
				<port id="1">
					<dim>1</dim>
					<dim>64</dim>
					<dim>1</dim>
					<dim>1</dim>
				</port>
			</input>
			<output>
				<port id="2" precision="FP32" names="bottleneck2_1/dim_inc/conv">
					<dim>1</dim>
					<dim>64</dim>
					<dim>80</dim>
					<dim>136</dim>
				</port>
			</output>
		</layer>
		<layer id="399" name="bottleneck2_1/add/fq_input_1" type="FakeQuantize" version="opset1">
			<data levels="256" auto_broadcast="numpy"/>
			<input>
				<port id="0">
					<dim>1</dim>
					<dim>64</dim>
					<dim>80</dim>
					<dim>136</dim>
				</port>
				<port id="1"/>
				<port id="2"/>
				<port id="3"/>
				<port id="4"/>
			</input>
			<output>
				<port id="5" precision="FP32">
					<dim>1</dim>
					<dim>64</dim>
					<dim>80</dim>
					<dim>136</dim>
				</port>
			</output>
		</layer>
		<layer id="400" name="bottleneck2_1/add" type="Add" version="opset1">
			<data auto_broadcast="numpy"/>
			<input>
				<port id="0">
					<dim>1</dim>
					<dim>64</dim>
					<dim>80</dim>
					<dim>136</dim>
				</port>
				<port id="1">
					<dim>1</dim>
					<dim>64</dim>
					<dim>80</dim>
					<dim>136</dim>
				</port>
			</input>
			<output>
				<port id="2" precision="FP32" names="bottleneck2_1/add">
					<dim>1</dim>
					<dim>64</dim>
					<dim>80</dim>
					<dim>136</dim>
				</port>
			</output>
		</layer>
		<layer id="401" name="bottleneck2_1/fn/weights3120440634127126888" type="Const" version="opset1">
			<data offset="1500" size="2" shape="1" element_type="f16"/>
			<output>
				<port id="0" precision="FP16">
					<dim>1</dim>
				</port>
			</output>
		</layer>
		<layer id="402" name="bottleneck2_1/fn/weights3120440634127113976/restored_convert" type="Convert" version="opset1">
			<data destination_type="f32"/>
			<rt_info>
				<attribute name="decompression" version="0"/>
			</rt_info>
			<input>
				<port id="0">
					<dim>1</dim>
				</port>
			</input>
			<output>
				<port id="1" precision="FP32">
					<dim>1</dim>
				</port>
			</output>
		</layer>
		<layer id="403" name="bottleneck2_1/fn" type="PReLU" version="opset1">
			<input>
				<port id="0">
					<dim>1</dim>
					<dim>64</dim>
					<dim>80</dim>
…
		<edge from-layer="1558" from-port="0" to-layer="1559" to-port="0"/>
		<edge from-layer="1557" from-port="2" to-layer="1560" to-port="0"/>
		<edge from-layer="1559" from-port="1" to-layer="1560" to-port="1"/>
		<edge from-layer="1560" from-port="2" to-layer="1561" to-port="0"/>
		<edge from-layer="1515" from-port="0" to-layer="1561" to-port="1"/>
		<edge from-layer="1516" from-port="0" to-layer="1561" to-port="2"/>
		<edge from-layer="1517" from-port="0" to-layer="1561" to-port="3"/>
		<edge from-layer="1518" from-port="0" to-layer="1561" to-port="4"/>
		<edge from-layer="1514" from-port="5" to-layer="1562" to-port="0"/>
		<edge from-layer="1561" from-port="5" to-layer="1562" to-port="1"/>
		<edge from-layer="1563" from-port="0" to-layer="1564" to-port="0"/>
		<edge from-layer="1562" from-port="2" to-layer="1565" to-port="0"/>
		<edge from-layer="1564" from-port="1" to-layer="1565" to-port="1"/>
		<edge from-layer="1565" from-port="2" to-layer="1566" to-port="0"/>
		<edge from-layer="1442" from-port="0" to-layer="1566" to-port="1"/>
		<edge from-layer="1443" from-port="0" to-layer="1566" to-port="2"/>
		<edge from-layer="1444" from-port="0" to-layer="1566" to-port="3"/>
		<edge from-layer="1445" from-port="0" to-layer="1566" to-port="4"/>
		<edge from-layer="1580" from-port="0" to-layer="1581" to-port="0"/>
		<edge from-layer="1581" from-port="1" to-layer="1582" to-port="0"/>
		<edge from-layer="1579" from-port="0" to-layer="1582" to-port="1"/>
		<edge from-layer="1566" from-port="5" to-layer="1583" to-port="0"/>
		<edge from-layer="1582" from-port="2" to-layer="1583" to-port="1"/>
		<edge from-layer="1584" from-port="0" to-layer="1585" to-port="0"/>
		<edge from-layer="1583" from-port="2" to-layer="1586" to-port="0"/>
		<edge from-layer="1585" from-port="1" to-layer="1586" to-port="1"/>
		<edge from-layer="1587" from-port="0" to-layer="1588" to-port="0"/>
		<edge from-layer="1586" from-port="2" to-layer="1589" to-port="0"/>
		<edge from-layer="1588" from-port="1" to-layer="1589" to-port="1"/>
		<edge from-layer="1589" from-port="2" to-layer="1590" to-port="0"/>
		<edge from-layer="1575" from-port="0" to-layer="1590" to-port="1"/>
		<edge from-layer="1576" from-port="0" to-layer="1590" to-port="2"/>
		<edge from-layer="1577" from-port="0" to-layer="1590" to-port="3"/>
		<edge from-layer="1578" from-port="0" to-layer="1590" to-port="4"/>
		<edge from-layer="1593" from-port="0" to-layer="1594" to-port="0"/>
		<edge from-layer="1594" from-port="1" to-layer="1595" to-port="0"/>
		<edge from-layer="1592" from-port="0" to-layer="1595" to-port="1"/>
		<edge from-layer="1595" from-port="2" to-layer="1596" to-port="0"/>
		<edge from-layer="1591" from-port="0" to-layer="1596" to-port="1"/>
		<edge from-layer="1590" from-port="5" to-layer="1597" to-port="0"/>
		<edge from-layer="1596" from-port="2" to-layer="1597" to-port="1"/>
		<edge from-layer="1598" from-port="0" to-layer="1599" to-port="0"/>
		<edge from-layer="1597" from-port="2" to-layer="1600" to-port="0"/>
		<edge from-layer="1599" from-port="1" to-layer="1600" to-port="1"/>
		<edge from-layer="1601" from-port="0" to-layer="1602" to-port="0"/>
		<edge from-layer="1600" from-port="2" to-layer="1603" to-port="0"/>
		<edge from-layer="1602" from-port="1" to-layer="1603" to-port="1"/>
		<edge from-layer="1603" from-port="2" to-layer="1604" to-port="0"/>
		<edge from-layer="1571" from-port="0" to-layer="1604" to-port="1"/>
		<edge from-layer="1572" from-port="0" to-layer="1604" to-port="2"/>
		<edge from-layer="1573" from-port="0" to-layer="1604" to-port="3"/>
		<edge from-layer="1574" from-port="0" to-layer="1604" to-port="4"/>
		<edge from-layer="1606" from-port="0" to-layer="1607" to-port="0"/>
		<edge from-layer="1607" from-port="1" to-layer="1608" to-port="0"/>
		<edge from-layer="1605" from-port="0" to-layer="1608" to-port="1"/>
		<edge from-layer="1604" from-port="5" to-layer="1609" to-port="0"/>
		<edge from-layer="1608" from-port="2" to-layer="1609" to-port="1"/>
		<edge from-layer="1610" from-port="0" to-layer="1611" to-port="0"/>
		<edge from-layer="1609" from-port="2" to-layer="1612" to-port="0"/>
		<edge from-layer="1611" from-port="1" to-layer="1612" to-port="1"/>
		<edge from-layer="1612" from-port="2" to-layer="1613" to-port="0"/>
		<edge from-layer="1567" from-port="0" to-layer="1613" to-port="1"/>
		<edge from-layer="1568" from-port="0" to-layer="1613" to-port="2"/>
		<edge from-layer="1569" from-port="0" to-layer="1613" to-port="3"/>
		<edge from-layer="1570" from-port="0" to-layer="1613" to-port="4"/>
		<edge from-layer="1566" from-port="5" to-layer="1614" to-port="0"/>
		<edge from-layer="1613" from-port="5" to-layer="1614" to-port="1"/>
		<edge from-layer="1615" from-port="0" to-layer="1616" to-port="0"/>
		<edge from-layer="1614" from-port="2" to-layer="1617" to-port="0"/>
		<edge from-layer="1616" from-port="1" to-layer="1617" to-port="1"/>
		<edge from-layer="1617" from-port="2" to-layer="1618" to-port="0"/>
		<edge from-layer="1438" from-port="0" to-layer="1618" to-port="1"/>
		<edge from-layer="1439" from-port="0" to-layer="1618" to-port="2"/>
		<edge from-layer="1440" from-port="0" to-layer="1618" to-port="3"/>
		<edge from-layer="1441" from-port="0" to-layer="1618" to-port="4"/>
		<edge from-layer="1632" from-port="0" to-layer="1633" to-port="0"/>
		<edge from-layer="1633" from-port="1" to-layer="1634" to-port="0"/>
		<edge from-layer="1631" from-port="0" to-layer="1634" to-port="1"/>
		<edge from-layer="1618" from-port="5" to-layer="1635" to-port="0"/>
		<edge from-layer="1634" from-port="2" to-layer="1635" to-port="1"/>
		<edge from-layer="1636" from-port="0" to-layer="1637" to-port="0"/>
		<edge from-layer="1635" from-port="2" to-layer="1638" to-port="0"/>
		<edge from-layer="1637" from-port="1" to-layer="1638" to-port="1"/>
		<edge from-layer="1639" from-port="0" to-layer="1640" to-port="0"/>
		<edge from-layer="1638" from-port="2" to-layer="1641" to-port="0"/>
		<edge from-layer="1640" from-port="1" to-layer="1641" to-port="1"/>
		<edge from-layer="1641" from-port="2" to-layer="1642" to-port="0"/>
		<edge from-layer="1627" from-port="0" to-layer="1642" to-port="1"/>
		<edge from-layer="1628" from-port="0" to-layer="1642" to-port="2"/>
		<edge from-layer="1629" from-port="0" to-layer="1642" to-port="3"/>
		<edge from-layer="1630" from-port="0" to-layer="1642" to-port="4"/>
		<edge from-layer="1645" from-port="0" to-layer="1646" to-port="0"/>
		<edge from-layer="1646" from-port="1" to-layer="1647" to-port="0"/>
		<edge from-layer="1644" from-port="0" to-layer="1647" to-port="1"/>
		<edge from-layer="1647" from-port="2" to-layer="1648" to-port="0"/>
		<edge from-layer="1643" from-port="0" to-layer="1648" to-port="1"/>
		<edge from-layer="1642" from-port="5" to-layer="1649" to-port="0"/>
		<edge from-layer="1648" from-port="2" to-layer="1649" to-port="1"/>
		<edge from-layer="1650" from-port="0" to-layer="1651" to-port="0"/>
		<edge from-layer="1649" from-port="2" to-layer="1652" to-port="0"/>
		<edge from-layer="1651" from-port="1" to-layer="1652" to-port="1"/>
		<edge from-layer="1653" from-port="0" to-layer="1654" to-port="0"/>
		<edge from-layer="1652" from-port="2" to-layer="1655" to-port="0"/>
		<edge from-layer="1654" from-port="1" to-layer="1655" to-port="1"/>
		<edge from-layer="1655" from-port="2" to-layer="1656" to-port="0"/>
		<edge from-layer="1623" from-port="0" to-layer="1656" to-port="1"/>
		<edge from-layer="1624" from-port="0" to-layer="1656" to-port="2"/>
		<edge from-layer="1625" from-port="0" to-layer="1656" to-port="3"/>
		<edge from-layer="1626" from-port="0" to-layer="1656" to-port="4"/>
		<edge from-layer="1658" from-port="0" to-layer="1659" to-port="0"/>
		<edge from-layer="1659" from-port="1" to-layer="1660" to-port="0"/>
		<edge from-layer="1657" from-port="0" to-layer="1660" to-port="1"/>
		<edge from-layer="1656" from-port="5" to-layer="1661" to-port="0"/>
		<edge from-layer="1660" from-port="2" to-layer="1661" to-port="1"/>
		<edge from-layer="1662" from-port="0" to-layer="1663" to-port="0"/>
		<edge from-layer="1661" from-port="2" to-layer="1664" to-port="0"/>
		<edge from-layer="1663" from-port="1" to-layer="1664" to-port="1"/>
		<edge from-layer="1664" from-port="2" to-layer="1665" to-port="0"/>
		<edge from-layer="1619" from-port="0" to-layer="1665" to-port="1"/>
		<edge from-layer="1620" from-port="0" to-layer="1665" to-port="2"/>
		<edge from-layer="1621" from-port="0" to-layer="1665" to-port="3"/>
		<edge from-layer="1622" from-port="0" to-layer="1665" to-port="4"/>
		<edge from-layer="1618" from-port="5" to-layer="1666" to-port="0"/>
		<edge from-layer="1665" from-port="5" to-layer="1666" to-port="1"/>
		<edge from-layer="1667" from-port="0" to-layer="1668" to-port="0"/>
		<edge from-layer="1666" from-port="2" to-layer="1669" to-port="0"/>
		<edge from-layer="1668" from-port="1" to-layer="1669" to-port="1"/>
		<edge from-layer="1669" from-port="2" to-layer="1670" to-port="0"/>
		<edge from-layer="1434" from-port="0" to-layer="1670" to-port="1"/>
		<edge from-layer="1435" from-port="0" to-layer="1670" to-port="2"/>
		<edge from-layer="1436" from-port="0" to-layer="1670" to-port="3"/>
		<edge from-layer="1437" from-port="0" to-layer="1670" to-port="4"/>
		<edge from-layer="1684" from-port="0" to-layer="1685" to-port="0"/>
		<edge from-layer="1685" from-port="1" to-layer="1686" to-port="0"/>
		<edge from-layer="1683" from-port="0" to-layer="1686" to-port="1"/>
		<edge from-layer="1670" from-port="5" to-layer="1687" to-port="0"/>
		<edge from-layer="1686" from-port="2" to-layer="1687" to-port="1"/>
		<edge from-layer="1688" from-port="0" to-layer="1689" to-port="0"/>
		<edge from-layer="1687" from-port="2" to-layer="1690" to-port="0"/>
		<edge from-layer="1689" from-port="1" to-layer="1690" to-port="1"/>
		<edge from-layer="1691" from-port="0" to-layer="1692" to-port="0"/>
		<edge from-layer="1690" from-port="2" to-layer="1693" to-port="0"/>
		<edge from-layer="1692" from-port="1" to-layer="1693" to-port="1"/>
		<edge from-layer="1693" from-port="2" to-layer="1694" to-port="0"/>
		<edge from-layer="1679" from-port="0" to-layer="1694" to-port="1"/>
		<edge from-layer="1680" from-port="0" to-layer="1694" to-port="2"/>
		<edge from-layer="1681" from-port="0" to-layer="1694" to-port="3"/>
		<edge from-layer="1682" from-port="0" to-layer="1694" to-port="4"/>
		<edge from-layer="1697" from-port="0" to-layer="1698" to-port="0"/>
		<edge from-layer="1698" from-port="1" to-layer="1699" to-port="0"/>
		<edge from-layer="1696" from-port="0" to-layer="1699" to-port="1"/>
		<edge from-layer="1699" from-port="2" to-layer="1700" to-port="0"/>
		<edge from-layer="1695" from-port="0" to-layer="1700" to-port="1"/>
		<edge from-layer="1694" from-port="5" to-layer="1701" to-port="0"/>
		<edge from-layer="1700" from-port="2" to-layer="1701" to-port="1"/>
		<edge from-layer="1702" from-port="0" to-layer="1703" to-port="0"/>
		<edge from-layer="1701" from-port="2" to-layer="1704" to-port="0"/>
		<edge from-layer="1703" from-port="1" to-layer="1704" to-port="1"/>
		<edge from-layer="1705" from-port="0" to-layer="1706" to-port="0"/>
		<edge from-layer="1704" from-port="2" to-layer="1707" to-port="0"/>
		<edge from-layer="1706" from-port="1" to-layer="1707" to-port="1"/>
		<edge from-layer="1707" from-port="2" to-layer="1708" to-port="0"/>
		<edge from-layer="1675" from-port="0" to-layer="1708" to-port="1"/>
		<edge from-layer="1676" from-port="0" to-layer="1708" to-port="2"/>
		<edge from-layer="1677" from-port="0" to-layer="1708" to-port="3"/>
		<edge from-layer="1678" from-port="0" to-layer="1708" to-port="4"/>
		<edge from-layer="1710" from-port="0" to-layer="1711" to-port="0"/>
		<edge from-layer="1711" from-port="1" to-layer="1712" to-port="0"/>
		<edge from-layer="1709" from-port="0" to-layer="1712" to-port="1"/>
		<edge from-layer="1708" from-port="5" to-layer="1713" to-port="0"/>
		<edge from-layer="1712" from-port="2" to-layer="1713" to-port="1"/>
		<edge from-layer="1714" from-port="0" to-layer="1715" to-port="0"/>
		<edge from-layer="1713" from-port="2" to-layer="1716" to-port="0"/>
		<edge from-layer="1715" from-port="1" to-layer="1716" to-port="1"/>
		<edge from-layer="1716" from-port="2" to-layer="1717" to-port="0"/>
		<edge from-layer="1671" from-port="0" to-layer="1717" to-port="1"/>
		<edge from-layer="1672" from-port="0" to-layer="1717" to-port="2"/>
		<edge from-layer="1673" from-port="0" to-layer="1717" to-port="3"/>
		<edge from-layer="1674" from-port="0" to-layer="1717" to-port="4"/>
		<edge from-layer="1670" from-port="5" to-layer="1718" to-port="0"/>
		<edge from-layer="1717" from-port="5" to-layer="1718" to-port="1"/>
		<edge from-layer="1719" from-port="0" to-layer="1720" to-port="0"/>
		<edge from-layer="1718" from-port="2" to-layer="1721" to-port="0"/>
		<edge from-layer="1720" from-port="1" to-layer="1721" to-port="1"/>
		<edge from-layer="1721" from-port="2" to-layer="1722" to-port="0"/>
		<edge from-layer="1430" from-port="0" to-layer="1722" to-port="1"/>
		<edge from-layer="1431" from-port="0" to-layer="1722" to-port="2"/>
		<edge from-layer="1432" from-port="0" to-layer="1722" to-port="3"/>
		<edge from-layer="1433" from-port="0" to-layer="1722" to-port="4"/>
		<edge from-layer="1736" from-port="0" to-layer="1737" to-port="0"/>
		<edge from-layer="1737" from-port="1" to-layer="1738" to-port="0"/>
		<edge from-layer="1735" from-port="0" to-layer="1738" to-port="1"/>
		<edge from-layer="1722" from-port="5" to-layer="1739" to-port="0"/>
		<edge from-layer="1738" from-port="2" to-layer="1739" to-port="1"/>
		<edge from-layer="1740" from-port="0" to-layer="1741" to-port="0"/>
		<edge from-layer="1739" from-port="2" to-layer="1742" to-port="0"/>
		<edge from-layer="1741" from-port="1" to-layer="1742" to-port="1"/>
		<edge from-layer="1743" from-port="0" to-layer="1744" to-port="0"/>
		<edge from-layer="1742" from-port="2" to-layer="1745" to-port="0"/>
		<edge from-layer="1744" from-port="1" to-layer="1745" to-port="1"/>
		<edge from-layer="1745" from-port="2" to-layer="1746" to-port="0"/>
		<edge from-layer="1731" from-port="0" to-layer="1746" to-port="1"/>
		<edge from-layer="1732" from-port="0" to-layer="1746" to-port="2"/>
		<edge from-layer="1733" from-port="0" to-layer="1746" to-port="3"/>
		<edge from-layer="1734" from-port="0" to-layer="1746" to-port="4"/>
		<edge from-layer="1749" from-port="0" to-layer="1750" to-port="0"/>
		<edge from-layer="1750" from-port="1" to-layer="1751" to-port="0"/>
		<edge from-layer="1748" from-port="0" to-layer="1751" to-port="1"/>
		<edge from-layer="1751" from-port="2" to-layer="1752" to-port="0"/>
		<edge from-layer="1747" from-port="0" to-layer="1752" to-port="1"/>
		<edge from-layer="1746" from-port="5" to-layer="1753" to-port="0"/>
		<edge from-layer="1752" from-port="2" to-layer="1753" to-port="1"/>
		<edge from-layer="1754" from-port="0" to-layer="1755" to-port="0"/>
		<edge from-layer="1753" from-port="2" to-layer="1756" to-port="0"/>
		<edge from-layer="1755" from-port="1" to-layer="1756" to-port="1"/>
		<edge from-layer="1757" from-port="0" to-layer="1758" to-port="0"/>
		<edge from-layer="1756" from-port="2" to-layer="1759" to-port="0"/>
		<edge from-layer="1758" from-port="1" to-layer="1759" to-port="1"/>
		<edge from-layer="1759" from-port="2" to-layer="1760" to-port="0"/>
		<edge from-layer="1727" from-port="0" to-layer="1760" to-port="1"/>
		<edge from-layer="1728" from-port="0" to-layer="1760" to-port="2"/>
		<edge from-layer="1729" from-port="0" to-layer="1760" to-port="3"/>
		<edge from-layer="1730" from-port="0" to-layer="1760" to-port="4"/>
		<edge from-layer="1762" from-port="0" to-layer="1763" to-port="0"/>
		<edge from-layer="1763" from-port="1" to-layer="1764" to-port="0"/>
		<edge from-layer="1761" from-port="0" to-layer="1764" to-port="1"/>
		<edge from-layer="1760" from-port="5" to-layer="1765" to-port="0"/>
		<edge from-layer="1764" from-port="2" to-layer="1765" to-port="1"/>
		<edge from-layer="1766" from-port="0" to-layer="1767" to-port="0"/>
		<edge from-layer="1765" from-port="2" to-layer="1768" to-port="0"/>
		<edge from-layer="1767" from-port="1" to-layer="1768" to-port="1"/>
		<edge from-layer="1768" from-port="2" to-layer="1769" to-port="0"/>
		<edge from-layer="1723" from-port="0" to-layer="1769" to-port="1"/>
		<edge from-layer="1724" from-port="0" to-layer="1769" to-port="2"/>
		<edge from-layer="1725" from-port="0" to-layer="1769" to-port="3"/>
		<edge from-layer="1726" from-port="0" to-layer="1769" to-port="4"/>
		<edge from-layer="1722" from-port="5" to-layer="1770" to-port="0"/>
		<edge from-layer="1769" from-port="5" to-layer="1770" to-port="1"/>
		<edge from-layer="1771" from-port="0" to-layer="1772" to-port="0"/>
		<edge from-layer="1770" from-port="2" to-layer="1773" to-port="0"/>
		<edge from-layer="1772" from-port="1" to-layer="1773" to-port="1"/>
		<edge from-layer="1773" from-port="2" to-layer="1774" to-port="0"/>
		<edge from-layer="1426" from-port="0" to-layer="1774" to-port="1"/>
		<edge from-layer="1427" from-port="0" to-layer="1774" to-port="2"/>
		<edge from-layer="1428" from-port="0" to-layer="1774" to-port="3"/>
		<edge from-layer="1429" from-port="0" to-layer="1774" to-port="4"/>
		<edge from-layer="1788" from-port="0" to-layer="1789" to-port="0"/>
		<edge from-layer="1789" from-port="1" to-layer="1790" to-port="0"/>
		<edge from-layer="1787" from-port="0" to-layer="1790" to-port="1"/>
		<edge from-layer="1774" from-port="5" to-layer="1791" to-port="0"/>
		<edge from-layer="1790" from-port="2" to-layer="1791" to-port="1"/>
		<edge from-layer="1792" from-port="0" to-layer="1793" to-port="0"/>
		<edge from-layer="1791" from-port="2" to-layer="1794" to-port="0"/>
		<edge from-layer="1793" from-port="1" to-layer="1794" to-port="1"/>
		<edge from-layer="1795" from-port="0" to-layer="1796" to-port="0"/>
		<edge from-layer="1794" from-port="2" to-layer="1797" to-port="0"/>
		<edge from-layer="1796" from-port="1" to-layer="1797" to-port="1"/>
		<edge from-layer="1797" from-port="2" to-layer="1798" to-port="0"/>
		<edge from-layer="1783" from-port="0" to-layer="1798" to-port="1"/>
		<edge from-layer="1784" from-port="0" to-layer="1798" to-port="2"/>
		<edge from-layer="1785" from-port="0" to-layer="1798" to-port="3"/>
		<edge from-layer="1786" from-port="0" to-layer="1798" to-port="4"/>
		<edge from-layer="1801" from-port="0" to-layer="1802" to-port="0"/>
		<edge from-layer="1802" from-port="1" to-layer="1803" to-port="0"/>
		<edge from-layer="1800" from-port="0" to-layer="1803" to-port="1"/>
		<edge from-layer="1803" from-port="2" to-layer="1804" to-port="0"/>
		<edge from-layer="1799" from-port="0" to-layer="1804" to-port="1"/>
		<edge from-layer="1798" from-port="5" to-layer="1805" to-port="0"/>
		<edge from-layer="1804" from-port="2" to-layer="1805" to-port="1"/>
		<edge from-layer="1806" from-port="0" to-layer="1807" to-port="0"/>
		<edge from-layer="1805" from-port="2" to-layer="1808" to-port="0"/>
		<edge from-layer="1807" from-port="1" to-layer="1808" to-port="1"/>
		<edge from-layer="1809" from-port="0" to-layer="1810" to-port="0"/>
		<edge from-layer="1808" from-port="2" to-layer="1811" to-port="0"/>
		<edge from-layer="1810" from-port="1" to-layer="1811" to-port="1"/>
		<edge from-layer="1811" from-port="2" to-layer="1812" to-port="0"/>
		<edge from-layer="1779" from-port="0" to-layer="1812" to-port="1"/>
		<edge from-layer="1780" from-port="0" to-layer="1812" to-port="2"/>
		<edge from-layer="1781" from-port="0" to-layer="1812" to-port="3"/>
		<edge from-layer="1782" from-port="0" to-layer="1812" to-port="4"/>
		<edge from-layer="1814" from-port="0" to-layer="1815" to-port="0"/>
		<edge from-layer="1815" from-port="1" to-layer="1816" to-port="0"/>
		<edge from-layer="1813" from-port="0" to-layer="1816" to-port="1"/>
		<edge from-layer="1812" from-port="5" to-layer="1817" to-port="0"/>
		<edge from-layer="1816" from-port="2" to-layer="1817" to-port="1"/>
		<edge from-layer="1818" from-port="0" to-layer="1819" to-port="0"/>
		<edge from-layer="1817" from-port="2" to-layer="1820" to-port="0"/>
		<edge from-layer="1819" from-port="1" to-layer="1820" to-port="1"/>
		<edge from-layer="1820" from-port="2" to-layer="1821" to-port="0"/>
		<edge from-layer="1775" from-port="0" to-layer="1821" to-port="1"/>
		<edge from-layer="1776" from-port="0" to-layer="1821" to-port="2"/>
		<edge from-layer="1777" from-port="0" to-layer="1821" to-port="3"/>
		<edge from-layer="1778" from-port="0" to-layer="1821" to-port="4"/>
		<edge from-layer="1774" from-port="5" to-layer="1822" to-port="0"/>
		<edge from-layer="1821" from-port="5" to-layer="1822" to-port="1"/>
		<edge from-layer="1823" from-port="0" to-layer="1824" to-port="0"/>
		<edge from-layer="1822" from-port="2" to-layer="1825" to-port="0"/>
		<edge from-layer="1824" from-port="1" to-layer="1825" to-port="1"/>
		<edge from-layer="1825" from-port="2" to-layer="1826" to-port="0"/>
		<edge from-layer="1422" from-port="0" to-layer="1826" to-port="1"/>
		<edge from-layer="1423" from-port="0" to-layer="1826" to-port="2"/>
		<edge from-layer="1424" from-port="0" to-layer="1826" to-port="3"/>
		<edge from-layer="1425" from-port="0" to-layer="1826" to-port="4"/>
		<edge from-layer="1840" from-port="0" to-layer="1841" to-port="0"/>
		<edge from-layer="1841" from-port="1" to-layer="1842" to-port="0"/>
		<edge from-layer="1839" from-port="0" to-layer="1842" to-port="1"/>
		<edge from-layer="1826" from-port="5" to-layer="1843" to-port="0"/>
		<edge from-layer="1842" from-port="2" to-layer="1843" to-port="1"/>
		<edge from-layer="1844" from-port="0" to-layer="1845" to-port="0"/>
		<edge from-layer="1843" from-port="2" to-layer="1846" to-port="0"/>
		<edge from-layer="1845" from-port="1" to-layer="1846" to-port="1"/>
		<edge from-layer="1847" from-port="0" to-layer="1848" to-port="0"/>
		<edge from-layer="1846" from-port="2" to-layer="1849" to-port="0"/>
		<edge from-layer="1848" from-port="1" to-layer="1849" to-port="1"/>
		<edge from-layer="1849" from-port="2" to-layer="1850" to-port="0"/>
		<edge from-layer="1835" from-port="0" to-layer="1850" to-port="1"/>
		<edge from-layer="1836" from-port="0" to-layer="1850" to-port="2"/>
		<edge from-layer="1837" from-port="0" to-layer="1850" to-port="3"/>
		<edge from-layer="1838" from-port="0" to-layer="1850" to-port="4"/>
		<edge from-layer="1853" from-port="0" to-layer="1854" to-port="0"/>
		<edge from-layer="1854" from-port="1" to-layer="1855" to-port="0"/>
		<edge from-layer="1852" from-port="0" to-layer="1855" to-port="1"/>
		<edge from-layer="1855" from-port="2" to-layer="1856" to-port="0"/>
		<edge from-layer="1851" from-port="0" to-layer="1856" to-port="1"/>
		<edge from-layer="1850" from-port="5" to-layer="1857" to-port="0"/>
		<edge from-layer="1856" from-port="2" to-layer="1857" to-port="1"/>
		<edge from-layer="1858" from-port="0" to-layer="1859" to-port="0"/>
		<edge from-layer="1857" from-port="2" to-layer="1860" to-port="0"/>
		<edge from-layer="1859" from-port="1" to-layer="1860" to-port="1"/>
		<edge from-layer="1861" from-port="0" to-layer="1862" to-port="0"/>
		<edge from-layer="1860" from-port="2" to-layer="1863" to-port="0"/>
		<edge from-layer="1862" from-port="1" to-layer="1863" to-port="1"/>
		<edge from-layer="1863" from-port="2" to-layer="1864" to-port="0"/>
		<edge from-layer="1831" from-port="0" to-layer="1864" to-port="1"/>
		<edge from-layer="1832" from-port="0" to-layer="1864" to-port="2"/>
		<edge from-layer="1833" from-port="0" to-layer="1864" to-port="3"/>
		<edge from-layer="1834" from-port="0" to-layer="1864" to-port="4"/>
		<edge from-layer="1866" from-port="0" to-layer="1867" to-port="0"/>
		<edge from-layer="1867" from-port="1" to-layer="1868" to-port="0"/>
		<edge from-layer="1865" from-port="0" to-layer="1868" to-port="1"/>
		<edge from-layer="1864" from-port="5" to-layer="1869" to-port="0"/>
		<edge from-layer="1868" from-port="2" to-layer="1869" to-port="1"/>
		<edge from-layer="1870" from-port="0" to-layer="1871" to-port="0"/>
		<edge from-layer="1869" from-port="2" to-layer="1872" to-port="0"/>
		<edge from-layer="1871" from-port="1" to-layer="1872" to-port="1"/>
		<edge from-layer="1872" from-port="2" to-layer="1873" to-port="0"/>
		<edge from-layer="1827" from-port="0" to-layer="1873" to-port="1"/>
		<edge from-layer="1828" from-port="0" to-layer="1873" to-port="2"/>
		<edge from-layer="1829" from-port="0" to-layer="1873" to-port="3"/>
		<edge from-layer="1830" from-port="0" to-layer="1873" to-port="4"/>
		<edge from-layer="1826" from-port="5" to-layer="1874" to-port="0"/>
		<edge from-layer="1873" from-port="5" to-layer="1874" to-port="1"/>
		<edge from-layer="1875" from-port="0" to-layer="1876" to-port="0"/>
		<edge from-layer="1874" from-port="2" to-layer="1877" to-port="0"/>
		<edge from-layer="1876" from-port="1" to-layer="1877" to-port="1"/>
		<edge from-layer="1877" from-port="2" to-layer="1878" to-port="0"/>
		<edge from-layer="1418" from-port="0" to-layer="1878" to-port="1"/>
		<edge from-layer="1419" from-port="0" to-layer="1878" to-port="2"/>
		<edge from-layer="1420" from-port="0" to-layer="1878" to-port="3"/>
		<edge from-layer="1421" from-port="0" to-layer="1878" to-port="4"/>
		<edge from-layer="1892" from-port="0" to-layer="1893" to-port="0"/>
		<edge from-layer="1893" from-port="1" to-layer="1894" to-port="0"/>
		<edge from-layer="1891" from-port="0" to-layer="1894" to-port="1"/>
		<edge from-layer="1878" from-port="5" to-layer="1895" to-port="0"/>
		<edge from-layer="1894" from-port="2" to-layer="1895" to-port="1"/>
		<edge from-layer="1896" from-port="0" to-layer="1897" to-port="0"/>
		<edge from-layer="1895" from-port="2" to-layer="1898" to-port="0"/>
		<edge from-layer="1897" from-port="1" to-layer="1898" to-port="1"/>
		<edge from-layer="1899" from-port="0" to-layer="1900" to-port="0"/>
		<edge from-layer="1898" from-port="2" to-layer="1901" to-port="0"/>
		<edge from-layer="1900" from-port="1" to-layer="1901" to-port="1"/>
		<edge from-layer="1901" from-port="2" to-layer="1902" to-port="0"/>
		<edge from-layer="1887" from-port="0" to-layer="1902" to-port="1"/>
		<edge from-layer="1888" from-port="0" to-layer="1902" to-port="2"/>
		<edge from-layer="1889" from-port="0" to-layer="1902" to-port="3"/>
		<edge from-layer="1890" from-port="0" to-layer="1902" to-port="4"/>
		<edge from-layer="1905" from-port="0" to-layer="1906" to-port="0"/>
		<edge from-layer="1906" from-port="1" to-layer="1907" to-port="0"/>
		<edge from-layer="1904" from-port="0" to-layer="1907" to-port="1"/>
		<edge from-layer="1907" from-port="2" to-layer="1908" to-port="0"/>
		<edge from-layer="1903" from-port="0" to-layer="1908" to-port="1"/>
		<edge from-layer="1902" from-port="5" to-layer="1909" to-port="0"/>
		<edge from-layer="1908" from-port="2" to-layer="1909" to-port="1"/>
		<edge from-layer="1910" from-port="0" to-layer="1911" to-port="0"/>
		<edge from-layer="1909" from-port="2" to-layer="1912" to-port="0"/>
		<edge from-layer="1911" from-port="1" to-layer="1912" to-port="1"/>
		<edge from-layer="1913" from-port="0" to-layer="1914" to-port="0"/>
		<edge from-layer="1912" from-port="2" to-layer="1915" to-port="0"/>
		<edge from-layer="1914" from-port="1" to-layer="1915" to-port="1"/>
		<edge from-layer="1915" from-port="2" to-layer="1916" to-port="0"/>
		<edge from-layer="1883" from-port="0" to-layer="1916" to-port="1"/>
		<edge from-layer="1884" from-port="0" to-layer="1916" to-port="2"/>
		<edge from-layer="1885" from-port="0" to-layer="1916" to-port="3"/>
		<edge from-layer="1886" from-port="0" to-layer="1916" to-port="4"/>
		<edge from-layer="1918" from-port="0" to-layer="1919" to-port="0"/>
		<edge from-layer="1919" from-port="1" to-layer="1920" to-port="0"/>
		<edge from-layer="1917" from-port="0" to-layer="1920" to-port="1"/>
		<edge from-layer="1916" from-port="5" to-layer="1921" to-port="0"/>
		<edge from-layer="1920" from-port="2" to-layer="1921" to-port="1"/>
		<edge from-layer="1922" from-port="0" to-layer="1923" to-port="0"/>
		<edge from-layer="1921" from-port="2" to-layer="1924" to-port="0"/>
		<edge from-layer="1923" from-port="1" to-layer="1924" to-port="1"/>
		<edge from-layer="1924" from-port="2" to-layer="1925" to-port="0"/>
		<edge from-layer="1879" from-port="0" to-layer="1925" to-port="1"/>
		<edge from-layer="1880" from-port="0" to-layer="1925" to-port="2"/>
		<edge from-layer="1881" from-port="0" to-layer="1925" to-port="3"/>
		<edge from-layer="1882" from-port="0" to-layer="1925" to-port="4"/>
		<edge from-layer="1878" from-port="5" to-layer="1926" to-port="0"/>
		<edge from-layer="1925" from-port="5" to-layer="1926" to-port="1"/>
		<edge from-layer="1927" from-port="0" to-layer="1928" to-port="0"/>
		<edge from-layer="1926" from-port="2" to-layer="1929" to-port="0"/>
		<edge from-layer="1928" from-port="1" to-layer="1929" to-port="1"/>
		<edge from-layer="1929" from-port="2" to-layer="1930" to-port="0"/>
		<edge from-layer="1414" from-port="0" to-layer="1930" to-port="1"/>
		<edge from-layer="1415" from-port="0" to-layer="1930" to-port="2"/>
		<edge from-layer="1416" from-port="0" to-layer="1930" to-port="3"/>
		<edge from-layer="1417" from-port="0" to-layer="1930" to-port="4"/>
		<edge from-layer="1944" from-port="0" to-layer="1945" to-port="0"/>
		<edge from-layer="1945" from-port="1" to-layer="1946" to-port="0"/>
		<edge from-layer="1943" from-port="0" to-layer="1946" to-port="1"/>
		<edge from-layer="1930" from-port="5" to-layer="1947" to-port="0"/>
		<edge from-layer="1946" from-port="2" to-layer="1947" to-port="1"/>
		<edge from-layer="1948" from-port="0" to-layer="1949" to-port="0"/>
		<edge from-layer="1947" from-port="2" to-layer="1950" to-port="0"/>
		<edge from-layer="1949" from-port="1" to-layer="1950" to-port="1"/>
		<edge from-layer="1951" from-port="0" to-layer="1952" to-port="0"/>
		<edge from-layer="1950" from-port="2" to-layer="1953" to-port="0"/>
		<edge from-layer="1952" from-port="1" to-layer="1953" to-port="1"/>
		<edge from-layer="1953" from-port="2" to-layer="1954" to-port="0"/>
		<edge from-layer="1939" from-port="0" to-layer="1954" to-port="1"/>
		<edge from-layer="1940" from-port="0" to-layer="1954" to-port="2"/>
		<edge from-layer="1941" from-port="0" to-layer="1954" to-port="3"/>
		<edge from-layer="1942" from-port="0" to-layer="1954" to-port="4"/>
		<edge from-layer="1957" from-port="0" to-layer="1958" to-port="0"/>
		<edge from-layer="1958" from-port="1" to-layer="1959" to-port="0"/>
		<edge from-layer="1956" from-port="0" to-layer="1959" to-port="1"/>
		<edge from-layer="1959" from-port="2" to-layer="1960" to-port="0"/>
		<edge from-layer="1955" from-port="0" to-layer="1960" to-port="1"/>
		<edge from-layer="1954" from-port="5" to-layer="1961" to-port="0"/>
		<edge from-layer="1960" from-port="2" to-layer="1961" to-port="1"/>
		<edge from-layer="1962" from-port="0" to-layer="1963" to-port="0"/>
		<edge from-layer="1961" from-port="2" to-layer="1964" to-port="0"/>
		<edge from-layer="1963" from-port="1" to-layer="1964" to-port="1"/>
		<edge from-layer="1965" from-port="0" to-layer="1966" to-port="0"/>
		<edge from-layer="1964" from-port="2" to-layer="1967" to-port="0"/>
		<edge from-layer="1966" from-port="1" to-layer="1967" to-port="1"/>
		<edge from-layer="1967" from-port="2" to-layer="1968" to-port="0"/>
		<edge from-layer="1935" from-port="0" to-layer="1968" to-port="1"/>
		<edge from-layer="1936" from-port="0" to-layer="1968" to-port="2"/>
		<edge from-layer="1937" from-port="0" to-layer="1968" to-port="3"/>
		<edge from-layer="1938" from-port="0" to-layer="1968" to-port="4"/>
		<edge from-layer="1970" from-port="0" to-layer="1971" to-port="0"/>
		<edge from-layer="1971" from-port="1" to-layer="1972" to-port="0"/>
		<edge from-layer="1969" from-port="0" to-layer="1972" to-port="1"/>
		<edge from-layer="1968" from-port="5" to-layer="1973" to-port="0"/>
		<edge from-layer="1972" from-port="2" to-layer="1973" to-port="1"/>
		<edge from-layer="1974" from-port="0" to-layer="1975" to-port="0"/>
		<edge from-layer="1973" from-port="2" to-layer="1976" to-port="0"/>
		<edge from-layer="1975" from-port="1" to-layer="1976" to-port="1"/>
		<edge from-layer="1976" from-port="2" to-layer="1977" to-port="0"/>
		<edge from-layer="1931" from-port="0" to-layer="1977" to-port="1"/>
		<edge from-layer="1932" from-port="0" to-layer="1977" to-port="2"/>
		<edge from-layer="1933" from-port="0" to-layer="1977" to-port="3"/>
		<edge from-layer="1934" from-port="0" to-layer="1977" to-port="4"/>
		<edge from-layer="1930" from-port="5" to-layer="1978" to-port="0"/>
		<edge from-layer="1977" from-port="5" to-layer="1978" to-port="1"/>
		<edge from-layer="1979" from-port="0" to-layer="1980" to-port="0"/>
		<edge from-layer="1978" from-port="2" to-layer="1981" to-port="0"/>
		<edge from-layer="1980" from-port="1" to-layer="1981" to-port="1"/>
		<edge from-layer="1981" from-port="2" to-layer="1982" to-port="0"/>
		<edge from-layer="1410" from-port="0" to-layer="1982" to-port="1"/>
		<edge from-layer="1411" from-port="0" to-layer="1982" to-port="2"/>
		<edge from-layer="1412" from-port="0" to-layer="1982" to-port="3"/>
		<edge from-layer="1413" from-port="0" to-layer="1982" to-port="4"/>
		<edge from-layer="1996" from-port="0" to-layer="1997" to-port="0"/>
		<edge from-layer="1997" from-port="1" to-layer="1998" to-port="0"/>
		<edge from-layer="1995" from-port="0" to-layer="1998" to-port="1"/>
		<edge from-layer="1982" from-port="5" to-layer="1999" to-port="0"/>
		<edge from-layer="1998" from-port="2" to-layer="1999" to-port="1"/>
		<edge from-layer="2000" from-port="0" to-layer="2001" to-port="0"/>
		<edge from-layer="1999" from-port="2" to-layer="2002" to-port="0"/>
		<edge from-layer="2001" from-port="1" to-layer="2002" to-port="1"/>
		<edge from-layer="2003" from-port="0" to-layer="2004" to-port="0"/>
		<edge from-layer="2002" from-port="2" to-layer="2005" to-port="0"/>
		<edge from-layer="2004" from-port="1" to-layer="2005" to-port="1"/>
		<edge from-layer="2005" from-port="2" to-layer="2006" to-port="0"/>
		<edge from-layer="1991" from-port="0" to-layer="2006" to-port="1"/>
		<edge from-layer="1992" from-port="0" to-layer="2006" to-port="2"/>
		<edge from-layer="1993" from-port="0" to-layer="2006" to-port="3"/>
		<edge from-layer="1994" from-port="0" to-layer="2006" to-port="4"/>
		<edge from-layer="2009" from-port="0" to-layer="2010" to-port="0"/>
		<edge from-layer="2010" from-port="1" to-layer="2011" to-port="0"/>
		<edge from-layer="2008" from-port="0" to-layer="2011" to-port="1"/>
		<edge from-layer="2011" from-port="2" to-layer="2012" to-port="0"/>
		<edge from-layer="2007" from-port="0" to-layer="2012" to-port="1"/>
		<edge from-layer="2006" from-port="5" to-layer="2013" to-port="0"/>
		<edge from-layer="2012" from-port="2" to-layer="2013" to-port="1"/>
		<edge from-layer="2014" from-port="0" to-layer="2015" to-port="0"/>
		<edge from-layer="2013" from-port="2" to-layer="2016" to-port="0"/>
		<edge from-layer="2015" from-port="1" to-layer="2016" to-port="1"/>
		<edge from-layer="2017" from-port="0" to-layer="2018" to-port="0"/>
		<edge from-layer="2016" from-port="2" to-layer="2019" to-port="0"/>
		<edge from-layer="2018" from-port="1" to-layer="2019" to-port="1"/>
		<edge from-layer="2019" from-port="2" to-layer="2020" to-port="0"/>
		<edge from-layer="1987" from-port="0" to-layer="2020" to-port="1"/>
		<edge from-layer="1988" from-port="0" to-layer="2020" to-port="2"/>
		<edge from-layer="1989" from-port="0" to-layer="2020" to-port="3"/>
		<edge from-layer="1990" from-port="0" to-layer="2020" to-port="4"/>
		<edge from-layer="2022" from-port="0" to-layer="2023" to-port="0"/>
		<edge from-layer="2023" from-port="1" to-layer="2024" to-port="0"/>
		<edge from-layer="2021" from-port="0" to-layer="2024" to-port="1"/>
		<edge from-layer="2020" from-port="5" to-layer="2025" to-port="0"/>
		<edge from-layer="2024" from-port="2" to-layer="2025" to-port="1"/>
		<edge from-layer="2026" from-port="0" to-layer="2027" to-port="0"/>
		<edge from-layer="2025" from-port="2" to-layer="2028" to-port="0"/>
		<edge from-layer="2027" from-port="1" to-layer="2028" to-port="1"/>
		<edge from-layer="2028" from-port="2" to-layer="2029" to-port="0"/>
		<edge from-layer="1983" from-port="0" to-layer="2029" to-port="1"/>
		<edge from-layer="1984" from-port="0" to-layer="2029" to-port="2"/>
		<edge from-layer="1985" from-port="0" to-layer="2029" to-port="3"/>
		<edge from-layer="1986" from-port="0" to-layer="2029" to-port="4"/>
		<edge from-layer="1982" from-port="5" to-layer="2030" to-port="0"/>
		<edge from-layer="2029" from-port="5" to-layer="2030" to-port="1"/>
		<edge from-layer="2031" from-port="0" to-layer="2032" to-port="0"/>
		<edge from-layer="2030" from-port="2" to-layer="2033" to-port="0"/>
		<edge from-layer="2032" from-port="1" to-layer="2033" to-port="1"/>
		<edge from-layer="2033" from-port="2" to-layer="2034" to-port="0"/>
		<edge from-layer="1406" from-port="0" to-layer="2034" to-port="1"/>
		<edge from-layer="1407" from-port="0" to-layer="2034" to-port="2"/>
		<edge from-layer="1408" from-port="0" to-layer="2034" to-port="3"/>
		<edge from-layer="1409" from-port="0" to-layer="2034" to-port="4"/>
		<edge from-layer="2048" from-port="0" to-layer="2049" to-port="0"/>
		<edge from-layer="2049" from-port="1" to-layer="2050" to-port="0"/>
		<edge from-layer="2047" from-port="0" to-layer="2050" to-port="1"/>
		<edge from-layer="2034" from-port="5" to-layer="2051" to-port="0"/>
		<edge from-layer="2050" from-port="2" to-layer="2051" to-port="1"/>
		<edge from-layer="2052" from-port="0" to-layer="2053" to-port="0"/>
		<edge from-layer="2051" from-port="2" to-layer="2054" to-port="0"/>
		<edge from-layer="2053" from-port="1" to-layer="2054" to-port="1"/>
		<edge from-layer="2055" from-port="0" to-layer="2056" to-port="0"/>
		<edge from-layer="2054" from-port="2" to-layer="2057" to-port="0"/>
		<edge from-layer="2056" from-port="1" to-layer="2057" to-port="1"/>
		<edge from-layer="2057" from-port="2" to-layer="2058" to-port="0"/>
		<edge from-layer="2043" from-port="0" to-layer="2058" to-port="1"/>
		<edge from-layer="2044" from-port="0" to-layer="2058" to-port="2"/>
		<edge from-layer="2045" from-port="0" to-layer="2058" to-port="3"/>
		<edge from-layer="2046" from-port="0" to-layer="2058" to-port="4"/>
		<edge from-layer="2061" from-port="0" to-layer="2062" to-port="0"/>
		<edge from-layer="2062" from-port="1" to-layer="2063" to-port="0"/>
		<edge from-layer="2060" from-port="0" to-layer="2063" to-port="1"/>
		<edge from-layer="2063" from-port="2" to-layer="2064" to-port="0"/>
		<edge from-layer="2059" from-port="0" to-layer="2064" to-port="1"/>
		<edge from-layer="2058" from-port="5" to-layer="2065" to-port="0"/>
		<edge from-layer="2064" from-port="2" to-layer="2065" to-port="1"/>
		<edge from-layer="2066" from-port="0" to-layer="2067" to-port="0"/>
		<edge from-layer="2065" from-port="2" to-layer="2068" to-port="0"/>
		<edge from-layer="2067" from-port="1" to-layer="2068" to-port="1"/>
		<edge from-layer="2069" from-port="0" to-layer="2070" to-port="0"/>
		<edge from-layer="2068" from-port="2" to-layer="2071" to-port="0"/>
		<edge from-layer="2070" from-port="1" to-layer="2071" to-port="1"/>
		<edge from-layer="2071" from-port="2" to-layer="2072" to-port="0"/>
		<edge from-layer="2039" from-port="0" to-layer="2072" to-port="1"/>
		<edge from-layer="2040" from-port="0" to-layer="2072" to-port="2"/>
		<edge from-layer="2041" from-port="0" to-layer="2072" to-port="3"/>
		<edge from-layer="2042" from-port="0" to-layer="2072" to-port="4"/>
		<edge from-layer="2074" from-port="0" to-layer="2075" to-port="0"/>
		<edge from-layer="2075" from-port="1" to-layer="2076" to-port="0"/>
		<edge from-layer="2073" from-port="0" to-layer="2076" to-port="1"/>
		<edge from-layer="2072" from-port="5" to-layer="2077" to-port="0"/>
		<edge from-layer="2076" from-port="2" to-layer="2077" to-port="1"/>
		<edge from-layer="2078" from-port="0" to-layer="2079" to-port="0"/>
		<edge from-layer="2077" from-port="2" to-layer="2080" to-port="0"/>
		<edge from-layer="2079" from-port="1" to-layer="2080" to-port="1"/>
		<edge from-layer="2080" from-port="2" to-layer="2081" to-port="0"/>
		<edge from-layer="2035" from-port="0" to-layer="2081" to-port="1"/>
		<edge from-layer="2036" from-port="0" to-layer="2081" to-port="2"/>
		<edge from-layer="2037" from-port="0" to-layer="2081" to-port="3"/>
		<edge from-layer="2038" from-port="0" to-layer="2081" to-port="4"/>
		<edge from-layer="2034" from-port="5" to-layer="2082" to-port="0"/>
		<edge from-layer="2081" from-port="5" to-layer="2082" to-port="1"/>
		<edge from-layer="2083" from-port="0" to-layer="2084" to-port="0"/>
		<edge from-layer="2082" from-port="2" to-layer="2085" to-port="0"/>
		<edge from-layer="2084" from-port="1" to-layer="2085" to-port="1"/>
		<edge from-layer="2085" from-port="2" to-layer="2086" to-port="0"/>
		<edge from-layer="1402" from-port="0" to-layer="2086" to-port="1"/>
		<edge from-layer="1403" from-port="0" to-layer="2086" to-port="2"/>
		<edge from-layer="1404" from-port="0" to-layer="2086" to-port="3"/>
		<edge from-layer="1405" from-port="0" to-layer="2086" to-port="4"/>
		<edge from-layer="2088" from-port="0" to-layer="2089" to-port="0"/>
		<edge from-layer="2089" from-port="1" to-layer="2090" to-port="0"/>
		<edge from-layer="2087" from-port="0" to-layer="2090" to-port="1"/>
		<edge from-layer="2086" from-port="5" to-layer="2091" to-port="0"/>
		<edge from-layer="2090" from-port="2" to-layer="2091" to-port="1"/>
		<edge from-layer="2092" from-port="0" to-layer="2093" to-port="0"/>
		<edge from-layer="2091" from-port="2" to-layer="2094" to-port="0"/>
		<edge from-layer="2093" from-port="1" to-layer="2094" to-port="1"/>
		<edge from-layer="2094" from-port="2" to-layer="2096" to-port="0"/>
		<edge from-layer="2095" from-port="0" to-layer="2096" to-port="1"/>
		<edge from-layer="2096" from-port="2" to-layer="2098" to-port="0"/>
		<edge from-layer="2097" from-port="0" to-layer="2098" to-port="1"/>
		<edge from-layer="2100" from-port="0" to-layer="2101" to-port="0"/>
		<edge from-layer="2101" from-port="1" to-layer="2102" to-port="0"/>
		<edge from-layer="2099" from-port="0" to-layer="2102" to-port="1"/>
		<edge from-layer="2086" from-port="5" to-layer="2103" to-port="0"/>
		<edge from-layer="2102" from-port="2" to-layer="2103" to-port="1"/>
		<edge from-layer="2104" from-port="0" to-layer="2105" to-port="0"/>
		<edge from-layer="2103" from-port="2" to-layer="2106" to-port="0"/>
		<edge from-layer="2105" from-port="1" to-layer="2106" to-port="1"/>
		<edge from-layer="2106" from-port="2" to-layer="2108" to-port="0"/>
		<edge from-layer="2107" from-port="0" to-layer="2108" to-port="1"/>
		<edge from-layer="2108" from-port="2" to-layer="2110" to-port="0"/>
		<edge from-layer="2109" from-port="0" to-layer="2110" to-port="1"/>
		<edge from-layer="2110" from-port="2" to-layer="2112" to-port="0"/>
		<edge from-layer="2111" from-port="0" to-layer="2112" to-port="1"/>
		<edge from-layer="2112" from-port="2" to-layer="2113" to-port="0"/>
		<edge from-layer="2113" from-port="1" to-layer="2115" to-port="0"/>
		<edge from-layer="2114" from-port="0" to-layer="2115" to-port="1"/>
		<edge from-layer="2085" from-port="2" to-layer="2116" to-port="0"/>
		<edge from-layer="2116" from-port="1" to-layer="2120" to-port="0"/>
		<edge from-layer="2117" from-port="0" to-layer="2120" to-port="1"/>
		<edge from-layer="2118" from-port="0" to-layer="2120" to-port="2"/>
		<edge from-layer="2119" from-port="0" to-layer="2120" to-port="3"/>
		<edge from-layer="24" from-port="0" to-layer="2121" to-port="0"/>
		<edge from-layer="2121" from-port="1" to-layer="2125" to-port="0"/>
		<edge from-layer="2122" from-port="0" to-layer="2125" to-port="1"/>
		<edge from-layer="2123" from-port="0" to-layer="2125" to-port="2"/>
		<edge from-layer="2124" from-port="0" to-layer="2125" to-port="3"/>
		<edge from-layer="2120" from-port="4" to-layer="2126" to-port="0"/>
		<edge from-layer="2125" from-port="4" to-layer="2126" to-port="1"/>
		<edge from-layer="2126" from-port="2" to-layer="2128" to-port="0"/>
		<edge from-layer="2127" from-port="0" to-layer="2128" to-port="1"/>
		<edge from-layer="2098" from-port="2" to-layer="2129" to-port="0"/>
		<edge from-layer="2115" from-port="2" to-layer="2129" to-port="1"/>
		<edge from-layer="2128" from-port="2" to-layer="2129" to-port="2"/>
		<edge from-layer="2129" from-port="3" to-layer="2130" to-port="0"/>
	</edges>
	<rt_info>
		<MO_version value="custom_HEAD_0250f62d11102ae97a35803756f079090876ddc1"/>
		<Runtime_version value="2023.0.0-10367-0250f62d111-HEAD"/>
		<conversion_parameters>
			<caffe_parser_path value="DIR"/>
			<framework value="caffe"/>
			<input value="data"/>
			<input_model value="DIR/rmnet_lrelu_pd_ssd.caffemodel"/>
			<input_proto value="DIR/rmnet_lrelu_pd_ssd.prototxt"/>
			<input_shape value="[1,3,320,544]"/>
			<layout value="data(nchw)"/>
			<model_name value="person-detection-retail-0013"/>
			<output value="detection_out"/>
			<output_dir value="DIR"/>
		</conversion_parameters>
		<legacy_frontend value="True"/>
		<quantization_parameters>
			<cli_params>
				<ac_config value="None"/>
				<data_source value="None"/>
				<direct_dump value="True"/>
				<engine value="None"/>
				<evaluate value="False"/>
				<keep_uncompressed_weights value="False"/>
				<log_level value="INFO"/>
				<max_drop value="None"/>
				<model value="None"/>
				<name value="None"/>
				<output_dir value="PATH"/>
				<pbar value="False"/>
				<preset value="None"/>
				<quantize value="None"/>
				<stream_output value="False"/>
				<weights value="None"/>
			</cli_params>
			<config value="{
		'compression': {
			'algorithms': [
				{
					'name': 'DefaultQuantization',
					'params': {
						'num_samples_for_tuning': 2000,
						'preset': 'performance',
						'stat_subset_size': 300,
						'use_layerwise_tuning': false
					}
				}
			],
			'dump_intermediate_model': true,
			'target_device': 'ANY'
		},
		'engine': {
			'models': [
				{
					'name': 'person-detection-retail-0013',
					'launchers': [
						{
							'framework': 'openvino',
							'adapter': 'ssd',
							'device': 'cpu'
						}
					],
					'datasets': [
						{
							'name': 'person_detection',
							'data_source': 'PATH',
							'annotation_conversion': {
								'converter': 'datatang_street_subway',
								'annotation_file': 'PATH'
							},
							'annotation': 'PATH',
							'dataset_meta': 'PATH',
							'preprocessing': [
								{
									'type': 'resize',
									'dst_width': 544,
									'dst_height': 320
								}
							],
							'postprocessing': [
								{
									'type': 'resize_prediction_boxes'
								},
								{
									'type': 'filter',
									'apply_to': 'annotation',
									'height_range': 100,
									'aspect_ratio': '0.666, 5',
									'is_empty': true,
									'min_visibility': 'partially occluded'
								},
								{
									'type': 'filter',
									'apply_to': 'prediction',
									'height_range': 100,
									'is_empty': true,
									'aspect_ratio': '0.666, 5'
								}
							],
							'metrics': [
								{
									'type': 'map',
									'ignore_difficult': true,
									'include_boundaries': true,
									'allow_multiple_matches_per_ignored': false,
									'distinct_conf': false,
									'reference': 0.8862
								}
							],
							'_command_line_mapping': {
								'annotation_file': 'PATH'
							}
						}
					]
				}
			],
			'stat_requests_number': null,
			'eval_requests_number': null,
			'type': 'accuracy_checker'
		}
	}"/>
			<version value="invalid version"/>
		</quantization_parameters>
	</rt_info>
	<quantization_parameters>
		<config>{
		'compression': {
			'algorithms': [
				{
					'name': 'DefaultQuantization',
					'params': {
						'num_samples_for_tuning': 2000,
						'preset': 'performance',
						'stat_subset_size': 300,
						'use_layerwise_tuning': false
					}
				}
			],
			'dump_intermediate_model': true,
			'target_device': 'ANY'
		},
		'engine': {
			'models': [
				{
					'name': 'person-detection-retail-0013',
					'launchers': [
						{
							'framework': 'openvino',
							'adapter': 'ssd',
							'device': 'cpu'
						}
					],
					'datasets': [
						{
							'name': 'person_detection',
							'data_source': 'PATH',
							'annotation_conversion': {
								'converter': 'datatang_street_subway',
								'annotation_file': 'PATH'
							},
							'annotation': 'PATH',
							'dataset_meta': 'PATH',
							'preprocessing': [
								{
									'type': 'resize',
									'dst_width': 544,
									'dst_height': 320
								}
							],
							'postprocessing': [
								{
									'type': 'resize_prediction_boxes'
								},
								{
									'type': 'filter',
									'apply_to': 'annotation',
									'height_range': 100,
									'aspect_ratio': '0.666, 5',
									'is_empty': true,
									'min_visibility': 'partially occluded'
								},
								{
									'type': 'filter',
									'apply_to': 'prediction',
									'height_range': 100,
									'is_empty': true,
									'aspect_ratio': '0.666, 5'
								}
							],
							'metrics': [
								{
									'type': 'map',
									'ignore_difficult': true,
									'include_boundaries': true,
									'allow_multiple_matches_per_ignored': false,
									'distinct_conf': false,
									'reference': 0.8862
								}
							],
							'_command_line_mapping': {
								'annotation_file': 'PATH'
							}
						}
					]
				}
			],
			'stat_requests_number': null,
			'eval_requests_number': null,
			'type': 'accuracy_checker'
		}
	}</config>
		<version value="invalid version"/>
		<cli_params value="{'quantize': None, 'preset': None, 'model': None, 'weights': None, 'name': None, 'engine': None, 'ac_config': None, 'max_drop': None, 'evaluate': False, 'output_dir': 'PATH', 'direct_dump': True, 'log_level': 'INFO', 'pbar': False, 'stream_output': False, 'keep_uncompressed_weights': False, 'data_source': None}"/>
	</quantization_parameters>
</net>
